{
  "nodes": [
    {
      "op": "null", 
      "name": "data", 
      "inputs": []
    }, 
    {
      "op": "null", 
      "name": "convolution0_weight", 
      "attrs": {
        "kernel": "(3, 3)", 
        "num_filter": "32", 
        "pad": "(1, 1)", 
        "stride": "(1, 1)"
      }, 
      "inputs": []
    }, 
    {
      "op": "null", 
      "name": "convolution0_bias", 
      "attrs": {
        "kernel": "(3, 3)", 
        "num_filter": "32", 
        "pad": "(1, 1)", 
        "stride": "(1, 1)"
      }, 
      "inputs": []
    }, 
    {
      "op": "Convolution", 
      "name": "convolution0", 
      "attrs": {
        "kernel": "(3, 3)", 
        "num_filter": "32", 
        "pad": "(1, 1)", 
        "stride": "(1, 1)"
      }, 
      "inputs": [[0, 0, 0], [1, 0, 0], [2, 0, 0]]
    }, 
    {
      "op": "null", 
      "name": "batchnorm0_gamma", 
      "attrs": {
        "eps": "2e-05", 
        "fix_gamma": "False", 
        "momentum": "0.9"
      }, 
      "inputs": []
    }, 
    {
      "op": "null", 
      "name": "batchnorm0_beta", 
      "attrs": {
        "eps": "2e-05", 
        "fix_gamma": "False", 
        "momentum": "0.9"
      }, 
      "inputs": []
    }, 
    {
      "op": "null", 
      "name": "batchnorm0_moving_mean", 
      "attrs": {
        "__init__": "[\"zero\", {}]", 
        "eps": "2e-05", 
        "fix_gamma": "False", 
        "momentum": "0.9"
      }, 
      "inputs": []
    }, 
    {
      "op": "null", 
      "name": "batchnorm0_moving_var", 
      "attrs": {
        "__init__": "[\"one\", {}]", 
        "eps": "2e-05", 
        "fix_gamma": "False", 
        "momentum": "0.9"
      }, 
      "inputs": []
    }, 
    {
      "op": "BatchNorm", 
      "name": "batchnorm0", 
      "attrs": {
        "eps": "2e-05", 
        "fix_gamma": "False", 
        "momentum": "0.9"
      }, 
      "inputs": [[3, 0, 0], [4, 0, 0], [5, 0, 0], [6, 0, 1], [7, 0, 1]]
    }, 
    {
      "op": "Activation", 
      "name": "activation0", 
      "attrs": {"act_type": "relu"}, 
      "inputs": [[8, 0, 0]]
    }, 
    {
      "op": "Dropout", 
      "name": "dropout0", 
      "attrs": {"p": "0.2"}, 
      "inputs": [[9, 0, 0]]
    }, 
    {
      "op": "Pooling", 
      "name": "pooling0", 
      "attrs": {
        "kernel": "(2, 2)", 
        "pool_type": "max", 
        "stride": "(2, 2)"
      }, 
      "inputs": [[10, 0, 0]]
    }, 
    {
      "op": "null", 
      "name": "convolution1_weight", 
      "attrs": {
        "kernel": "(3, 3)", 
        "num_filter": "32", 
        "pad": "(1, 1)", 
        "stride": "(1, 1)"
      }, 
      "inputs": []
    }, 
    {
      "op": "null", 
      "name": "convolution1_bias", 
      "attrs": {
        "kernel": "(3, 3)", 
        "num_filter": "32", 
        "pad": "(1, 1)", 
        "stride": "(1, 1)"
      }, 
      "inputs": []
    }, 
    {
      "op": "Convolution", 
      "name": "convolution1", 
      "attrs": {
        "kernel": "(3, 3)", 
        "num_filter": "32", 
        "pad": "(1, 1)", 
        "stride": "(1, 1)"
      }, 
      "inputs": [[11, 0, 0], [12, 0, 0], [13, 0, 0]]
    }, 
    {
      "op": "Activation", 
      "name": "activation1", 
      "attrs": {"act_type": "relu"}, 
      "inputs": [[14, 0, 0]]
    }, 
    {
      "op": "Pooling", 
      "name": "pooling1", 
      "attrs": {
        "kernel": "(2, 2)", 
        "pool_type": "max", 
        "stride": "(2, 2)"
      }, 
      "inputs": [[15, 0, 0]]
    }, 
    {
      "op": "null", 
      "name": "convolution2_weight", 
      "attrs": {
        "kernel": "(3, 3)", 
        "num_filter": "16", 
        "pad": "(1, 1)", 
        "stride": "(1, 1)"
      }, 
      "inputs": []
    }, 
    {
      "op": "null", 
      "name": "convolution2_bias", 
      "attrs": {
        "kernel": "(3, 3)", 
        "num_filter": "16", 
        "pad": "(1, 1)", 
        "stride": "(1, 1)"
      }, 
      "inputs": []
    }, 
    {
      "op": "Convolution", 
      "name": "convolution2", 
      "attrs": {
        "kernel": "(3, 3)", 
        "num_filter": "16", 
        "pad": "(1, 1)", 
        "stride": "(1, 1)"
      }, 
      "inputs": [[16, 0, 0], [17, 0, 0], [18, 0, 0]]
    }, 
    {
      "op": "null", 
      "name": "batchnorm1_gamma", 
      "attrs": {
        "eps": "2e-05", 
        "fix_gamma": "False", 
        "momentum": "0.9"
      }, 
      "inputs": []
    }, 
    {
      "op": "null", 
      "name": "batchnorm1_beta", 
      "attrs": {
        "eps": "2e-05", 
        "fix_gamma": "False", 
        "momentum": "0.9"
      }, 
      "inputs": []
    }, 
    {
      "op": "null", 
      "name": "batchnorm1_moving_mean", 
      "attrs": {
        "__init__": "[\"zero\", {}]", 
        "eps": "2e-05", 
        "fix_gamma": "False", 
        "momentum": "0.9"
      }, 
      "inputs": []
    }, 
    {
      "op": "null", 
      "name": "batchnorm1_moving_var", 
      "attrs": {
        "__init__": "[\"one\", {}]", 
        "eps": "2e-05", 
        "fix_gamma": "False", 
        "momentum": "0.9"
      }, 
      "inputs": []
    }, 
    {
      "op": "BatchNorm", 
      "name": "batchnorm1", 
      "attrs": {
        "eps": "2e-05", 
        "fix_gamma": "False", 
        "momentum": "0.9"
      }, 
      "inputs": [[19, 0, 0], [20, 0, 0], [21, 0, 0], [22, 0, 1], [23, 0, 1]]
    }, 
    {
      "op": "Activation", 
      "name": "activation2", 
      "attrs": {"act_type": "relu"}, 
      "inputs": [[24, 0, 0]]
    }, 
    {
      "op": "Dropout", 
      "name": "dropout1", 
      "attrs": {"p": "0.2"}, 
      "inputs": [[25, 0, 0]]
    }, 
    {
      "op": "Pooling", 
      "name": "pooling2", 
      "attrs": {
        "kernel": "(1, 2)", 
        "pool_type": "max", 
        "stride": "(1, 2)"
      }, 
      "inputs": [[26, 0, 0]]
    }, 
    {
      "op": "null", 
      "name": "convolution3_weight", 
      "attrs": {
        "kernel": "(3, 3)", 
        "num_filter": "16", 
        "pad": "(1, 1)", 
        "stride": "(1, 1)"
      }, 
      "inputs": []
    }, 
    {
      "op": "null", 
      "name": "convolution3_bias", 
      "attrs": {
        "kernel": "(3, 3)", 
        "num_filter": "16", 
        "pad": "(1, 1)", 
        "stride": "(1, 1)"
      }, 
      "inputs": []
    }, 
    {
      "op": "Convolution", 
      "name": "convolution3", 
      "attrs": {
        "kernel": "(3, 3)", 
        "num_filter": "16", 
        "pad": "(1, 1)", 
        "stride": "(1, 1)"
      }, 
      "inputs": [[27, 0, 0], [28, 0, 0], [29, 0, 0]]
    }, 
    {
      "op": "Activation", 
      "name": "activation3", 
      "attrs": {"act_type": "relu"}, 
      "inputs": [[30, 0, 0]]
    }, 
    {
      "op": "Pooling", 
      "name": "pooling3", 
      "attrs": {
        "kernel": "(1, 2)", 
        "pool_type": "max", 
        "stride": "(1, 2)"
      }, 
      "inputs": [[31, 0, 0]]
    }, 
    {
      "op": "null", 
      "name": "convolution4_weight", 
      "attrs": {
        "kernel": "(3, 2)", 
        "num_filter": "16", 
        "pad": "(1, 0)", 
        "stride": "(1, 1)"
      }, 
      "inputs": []
    }, 
    {
      "op": "null", 
      "name": "convolution4_bias", 
      "attrs": {
        "kernel": "(3, 2)", 
        "num_filter": "16", 
        "pad": "(1, 0)", 
        "stride": "(1, 1)"
      }, 
      "inputs": []
    }, 
    {
      "op": "Convolution", 
      "name": "convolution4", 
      "attrs": {
        "kernel": "(3, 2)", 
        "num_filter": "16", 
        "pad": "(1, 0)", 
        "stride": "(1, 1)"
      }, 
      "inputs": [[32, 0, 0], [33, 0, 0], [34, 0, 0]]
    }, 
    {
      "op": "SliceChannel", 
      "name": "slicechannel0", 
      "attrs": {
        "axis": "2", 
        "num_outputs": "20", 
        "squeeze_axis": "1"
      }, 
      "inputs": [[35, 0, 0]]
    }, 
    {
      "op": "null", 
      "name": "l0_i2h_weight", 
      "inputs": []
    }, 
    {
      "op": "null", 
      "name": "l0_i2h_bias", 
      "inputs": []
    }, 
    {
      "op": "FullyConnected", 
      "name": "t0_l0_i2h", 
      "attrs": {"num_hidden": "400"}, 
      "inputs": [[36, 0, 0], [37, 0, 0], [38, 0, 0]]
    }, 
    {
      "op": "null", 
      "name": "l0_init_h", 
      "inputs": []
    }, 
    {
      "op": "null", 
      "name": "l0_h2h_weight", 
      "inputs": []
    }, 
    {
      "op": "null", 
      "name": "l0_h2h_bias", 
      "inputs": []
    }, 
    {
      "op": "FullyConnected", 
      "name": "t0_l0_h2h", 
      "attrs": {"num_hidden": "400"}, 
      "inputs": [[40, 0, 0], [41, 0, 0], [42, 0, 0]]
    }, 
    {
      "op": "elemwise_add", 
      "name": "_plus0", 
      "inputs": [[39, 0, 0], [43, 0, 0]]
    }, 
    {
      "op": "SliceChannel", 
      "name": "t0_l0_slice", 
      "attrs": {"num_outputs": "4"}, 
      "inputs": [[44, 0, 0]]
    }, 
    {
      "op": "Activation", 
      "name": "activation7", 
      "attrs": {"act_type": "sigmoid"}, 
      "inputs": [[45, 3, 0]]
    }, 
    {
      "op": "Activation", 
      "name": "activation6", 
      "attrs": {"act_type": "sigmoid"}, 
      "inputs": [[45, 2, 0]]
    }, 
    {
      "op": "null", 
      "name": "l0_init_c", 
      "inputs": []
    }, 
    {
      "op": "elemwise_mul", 
      "name": "_mul0", 
      "inputs": [[47, 0, 0], [48, 0, 0]]
    }, 
    {
      "op": "Activation", 
      "name": "activation4", 
      "attrs": {"act_type": "sigmoid"}, 
      "inputs": [[45, 0, 0]]
    }, 
    {
      "op": "Activation", 
      "name": "activation5", 
      "attrs": {"act_type": "tanh"}, 
      "inputs": [[45, 1, 0]]
    }, 
    {
      "op": "elemwise_mul", 
      "name": "_mul1", 
      "inputs": [[50, 0, 0], [51, 0, 0]]
    }, 
    {
      "op": "elemwise_add", 
      "name": "_plus1", 
      "inputs": [[49, 0, 0], [52, 0, 0]]
    }, 
    {
      "op": "Activation", 
      "name": "activation8", 
      "attrs": {"act_type": "tanh"}, 
      "inputs": [[53, 0, 0]]
    }, 
    {
      "op": "elemwise_mul", 
      "name": "_mul2", 
      "inputs": [[46, 0, 0], [54, 0, 0]]
    }, 
    {
      "op": "null", 
      "name": "l1_i2h_weight", 
      "inputs": []
    }, 
    {
      "op": "null", 
      "name": "l1_i2h_bias", 
      "inputs": []
    }, 
    {
      "op": "FullyConnected", 
      "name": "t0_l1_i2h", 
      "attrs": {"num_hidden": "400"}, 
      "inputs": [[36, 0, 0], [56, 0, 0], [57, 0, 0]]
    }, 
    {
      "op": "FullyConnected", 
      "name": "t1_l1_i2h", 
      "attrs": {"num_hidden": "400"}, 
      "inputs": [[36, 1, 0], [56, 0, 0], [57, 0, 0]]
    }, 
    {
      "op": "FullyConnected", 
      "name": "t2_l1_i2h", 
      "attrs": {"num_hidden": "400"}, 
      "inputs": [[36, 2, 0], [56, 0, 0], [57, 0, 0]]
    }, 
    {
      "op": "FullyConnected", 
      "name": "t3_l1_i2h", 
      "attrs": {"num_hidden": "400"}, 
      "inputs": [[36, 3, 0], [56, 0, 0], [57, 0, 0]]
    }, 
    {
      "op": "FullyConnected", 
      "name": "t4_l1_i2h", 
      "attrs": {"num_hidden": "400"}, 
      "inputs": [[36, 4, 0], [56, 0, 0], [57, 0, 0]]
    }, 
    {
      "op": "FullyConnected", 
      "name": "t5_l1_i2h", 
      "attrs": {"num_hidden": "400"}, 
      "inputs": [[36, 5, 0], [56, 0, 0], [57, 0, 0]]
    }, 
    {
      "op": "FullyConnected", 
      "name": "t6_l1_i2h", 
      "attrs": {"num_hidden": "400"}, 
      "inputs": [[36, 6, 0], [56, 0, 0], [57, 0, 0]]
    }, 
    {
      "op": "FullyConnected", 
      "name": "t7_l1_i2h", 
      "attrs": {"num_hidden": "400"}, 
      "inputs": [[36, 7, 0], [56, 0, 0], [57, 0, 0]]
    }, 
    {
      "op": "FullyConnected", 
      "name": "t8_l1_i2h", 
      "attrs": {"num_hidden": "400"}, 
      "inputs": [[36, 8, 0], [56, 0, 0], [57, 0, 0]]
    }, 
    {
      "op": "FullyConnected", 
      "name": "t9_l1_i2h", 
      "attrs": {"num_hidden": "400"}, 
      "inputs": [[36, 9, 0], [56, 0, 0], [57, 0, 0]]
    }, 
    {
      "op": "FullyConnected", 
      "name": "t10_l1_i2h", 
      "attrs": {"num_hidden": "400"}, 
      "inputs": [[36, 10, 0], [56, 0, 0], [57, 0, 0]]
    }, 
    {
      "op": "FullyConnected", 
      "name": "t11_l1_i2h", 
      "attrs": {"num_hidden": "400"}, 
      "inputs": [[36, 11, 0], [56, 0, 0], [57, 0, 0]]
    }, 
    {
      "op": "FullyConnected", 
      "name": "t12_l1_i2h", 
      "attrs": {"num_hidden": "400"}, 
      "inputs": [[36, 12, 0], [56, 0, 0], [57, 0, 0]]
    }, 
    {
      "op": "FullyConnected", 
      "name": "t13_l1_i2h", 
      "attrs": {"num_hidden": "400"}, 
      "inputs": [[36, 13, 0], [56, 0, 0], [57, 0, 0]]
    }, 
    {
      "op": "FullyConnected", 
      "name": "t14_l1_i2h", 
      "attrs": {"num_hidden": "400"}, 
      "inputs": [[36, 14, 0], [56, 0, 0], [57, 0, 0]]
    }, 
    {
      "op": "FullyConnected", 
      "name": "t15_l1_i2h", 
      "attrs": {"num_hidden": "400"}, 
      "inputs": [[36, 15, 0], [56, 0, 0], [57, 0, 0]]
    }, 
    {
      "op": "FullyConnected", 
      "name": "t16_l1_i2h", 
      "attrs": {"num_hidden": "400"}, 
      "inputs": [[36, 16, 0], [56, 0, 0], [57, 0, 0]]
    }, 
    {
      "op": "FullyConnected", 
      "name": "t17_l1_i2h", 
      "attrs": {"num_hidden": "400"}, 
      "inputs": [[36, 17, 0], [56, 0, 0], [57, 0, 0]]
    }, 
    {
      "op": "FullyConnected", 
      "name": "t18_l1_i2h", 
      "attrs": {"num_hidden": "400"}, 
      "inputs": [[36, 18, 0], [56, 0, 0], [57, 0, 0]]
    }, 
    {
      "op": "FullyConnected", 
      "name": "t19_l1_i2h", 
      "attrs": {"num_hidden": "400"}, 
      "inputs": [[36, 19, 0], [56, 0, 0], [57, 0, 0]]
    }, 
    {
      "op": "null", 
      "name": "l1_init_h", 
      "inputs": []
    }, 
    {
      "op": "null", 
      "name": "l1_h2h_weight", 
      "inputs": []
    }, 
    {
      "op": "null", 
      "name": "l1_h2h_bias", 
      "inputs": []
    }, 
    {
      "op": "FullyConnected", 
      "name": "t19_l1_h2h", 
      "attrs": {"num_hidden": "400"}, 
      "inputs": [[78, 0, 0], [79, 0, 0], [80, 0, 0]]
    }, 
    {
      "op": "elemwise_add", 
      "name": "_plus40", 
      "inputs": [[77, 0, 0], [81, 0, 0]]
    }, 
    {
      "op": "SliceChannel", 
      "name": "t19_l1_slice", 
      "attrs": {"num_outputs": "4"}, 
      "inputs": [[82, 0, 0]]
    }, 
    {
      "op": "Activation", 
      "name": "activation107", 
      "attrs": {"act_type": "sigmoid"}, 
      "inputs": [[83, 3, 0]]
    }, 
    {
      "op": "Activation", 
      "name": "activation106", 
      "attrs": {"act_type": "sigmoid"}, 
      "inputs": [[83, 2, 0]]
    }, 
    {
      "op": "null", 
      "name": "l1_init_c", 
      "inputs": []
    }, 
    {
      "op": "elemwise_mul", 
      "name": "_mul60", 
      "inputs": [[85, 0, 0], [86, 0, 0]]
    }, 
    {
      "op": "Activation", 
      "name": "activation104", 
      "attrs": {"act_type": "sigmoid"}, 
      "inputs": [[83, 0, 0]]
    }, 
    {
      "op": "Activation", 
      "name": "activation105", 
      "attrs": {"act_type": "tanh"}, 
      "inputs": [[83, 1, 0]]
    }, 
    {
      "op": "elemwise_mul", 
      "name": "_mul61", 
      "inputs": [[88, 0, 0], [89, 0, 0]]
    }, 
    {
      "op": "elemwise_add", 
      "name": "_plus41", 
      "inputs": [[87, 0, 0], [90, 0, 0]]
    }, 
    {
      "op": "Activation", 
      "name": "activation108", 
      "attrs": {"act_type": "tanh"}, 
      "inputs": [[91, 0, 0]]
    }, 
    {
      "op": "elemwise_mul", 
      "name": "_mul62", 
      "inputs": [[84, 0, 0], [92, 0, 0]]
    }, 
    {
      "op": "FullyConnected", 
      "name": "t18_l1_h2h", 
      "attrs": {"num_hidden": "400"}, 
      "inputs": [[93, 0, 0], [79, 0, 0], [80, 0, 0]]
    }, 
    {
      "op": "elemwise_add", 
      "name": "_plus42", 
      "inputs": [[76, 0, 0], [94, 0, 0]]
    }, 
    {
      "op": "SliceChannel", 
      "name": "t18_l1_slice", 
      "attrs": {"num_outputs": "4"}, 
      "inputs": [[95, 0, 0]]
    }, 
    {
      "op": "Activation", 
      "name": "activation112", 
      "attrs": {"act_type": "sigmoid"}, 
      "inputs": [[96, 3, 0]]
    }, 
    {
      "op": "Activation", 
      "name": "activation111", 
      "attrs": {"act_type": "sigmoid"}, 
      "inputs": [[96, 2, 0]]
    }, 
    {
      "op": "elemwise_mul", 
      "name": "_mul63", 
      "inputs": [[98, 0, 0], [91, 0, 0]]
    }, 
    {
      "op": "Activation", 
      "name": "activation109", 
      "attrs": {"act_type": "sigmoid"}, 
      "inputs": [[96, 0, 0]]
    }, 
    {
      "op": "Activation", 
      "name": "activation110", 
      "attrs": {"act_type": "tanh"}, 
      "inputs": [[96, 1, 0]]
    }, 
    {
      "op": "elemwise_mul", 
      "name": "_mul64", 
      "inputs": [[100, 0, 0], [101, 0, 0]]
    }, 
    {
      "op": "elemwise_add", 
      "name": "_plus43", 
      "inputs": [[99, 0, 0], [102, 0, 0]]
    }, 
    {
      "op": "Activation", 
      "name": "activation113", 
      "attrs": {"act_type": "tanh"}, 
      "inputs": [[103, 0, 0]]
    }, 
    {
      "op": "elemwise_mul", 
      "name": "_mul65", 
      "inputs": [[97, 0, 0], [104, 0, 0]]
    }, 
    {
      "op": "FullyConnected", 
      "name": "t17_l1_h2h", 
      "attrs": {"num_hidden": "400"}, 
      "inputs": [[105, 0, 0], [79, 0, 0], [80, 0, 0]]
    }, 
    {
      "op": "elemwise_add", 
      "name": "_plus44", 
      "inputs": [[75, 0, 0], [106, 0, 0]]
    }, 
    {
      "op": "SliceChannel", 
      "name": "t17_l1_slice", 
      "attrs": {"num_outputs": "4"}, 
      "inputs": [[107, 0, 0]]
    }, 
    {
      "op": "Activation", 
      "name": "activation117", 
      "attrs": {"act_type": "sigmoid"}, 
      "inputs": [[108, 3, 0]]
    }, 
    {
      "op": "Activation", 
      "name": "activation116", 
      "attrs": {"act_type": "sigmoid"}, 
      "inputs": [[108, 2, 0]]
    }, 
    {
      "op": "elemwise_mul", 
      "name": "_mul66", 
      "inputs": [[110, 0, 0], [103, 0, 0]]
    }, 
    {
      "op": "Activation", 
      "name": "activation114", 
      "attrs": {"act_type": "sigmoid"}, 
      "inputs": [[108, 0, 0]]
    }, 
    {
      "op": "Activation", 
      "name": "activation115", 
      "attrs": {"act_type": "tanh"}, 
      "inputs": [[108, 1, 0]]
    }, 
    {
      "op": "elemwise_mul", 
      "name": "_mul67", 
      "inputs": [[112, 0, 0], [113, 0, 0]]
    }, 
    {
      "op": "elemwise_add", 
      "name": "_plus45", 
      "inputs": [[111, 0, 0], [114, 0, 0]]
    }, 
    {
      "op": "Activation", 
      "name": "activation118", 
      "attrs": {"act_type": "tanh"}, 
      "inputs": [[115, 0, 0]]
    }, 
    {
      "op": "elemwise_mul", 
      "name": "_mul68", 
      "inputs": [[109, 0, 0], [116, 0, 0]]
    }, 
    {
      "op": "FullyConnected", 
      "name": "t16_l1_h2h", 
      "attrs": {"num_hidden": "400"}, 
      "inputs": [[117, 0, 0], [79, 0, 0], [80, 0, 0]]
    }, 
    {
      "op": "elemwise_add", 
      "name": "_plus46", 
      "inputs": [[74, 0, 0], [118, 0, 0]]
    }, 
    {
      "op": "SliceChannel", 
      "name": "t16_l1_slice", 
      "attrs": {"num_outputs": "4"}, 
      "inputs": [[119, 0, 0]]
    }, 
    {
      "op": "Activation", 
      "name": "activation122", 
      "attrs": {"act_type": "sigmoid"}, 
      "inputs": [[120, 3, 0]]
    }, 
    {
      "op": "Activation", 
      "name": "activation121", 
      "attrs": {"act_type": "sigmoid"}, 
      "inputs": [[120, 2, 0]]
    }, 
    {
      "op": "elemwise_mul", 
      "name": "_mul69", 
      "inputs": [[122, 0, 0], [115, 0, 0]]
    }, 
    {
      "op": "Activation", 
      "name": "activation119", 
      "attrs": {"act_type": "sigmoid"}, 
      "inputs": [[120, 0, 0]]
    }, 
    {
      "op": "Activation", 
      "name": "activation120", 
      "attrs": {"act_type": "tanh"}, 
      "inputs": [[120, 1, 0]]
    }, 
    {
      "op": "elemwise_mul", 
      "name": "_mul70", 
      "inputs": [[124, 0, 0], [125, 0, 0]]
    }, 
    {
      "op": "elemwise_add", 
      "name": "_plus47", 
      "inputs": [[123, 0, 0], [126, 0, 0]]
    }, 
    {
      "op": "Activation", 
      "name": "activation123", 
      "attrs": {"act_type": "tanh"}, 
      "inputs": [[127, 0, 0]]
    }, 
    {
      "op": "elemwise_mul", 
      "name": "_mul71", 
      "inputs": [[121, 0, 0], [128, 0, 0]]
    }, 
    {
      "op": "FullyConnected", 
      "name": "t15_l1_h2h", 
      "attrs": {"num_hidden": "400"}, 
      "inputs": [[129, 0, 0], [79, 0, 0], [80, 0, 0]]
    }, 
    {
      "op": "elemwise_add", 
      "name": "_plus48", 
      "inputs": [[73, 0, 0], [130, 0, 0]]
    }, 
    {
      "op": "SliceChannel", 
      "name": "t15_l1_slice", 
      "attrs": {"num_outputs": "4"}, 
      "inputs": [[131, 0, 0]]
    }, 
    {
      "op": "Activation", 
      "name": "activation127", 
      "attrs": {"act_type": "sigmoid"}, 
      "inputs": [[132, 3, 0]]
    }, 
    {
      "op": "Activation", 
      "name": "activation126", 
      "attrs": {"act_type": "sigmoid"}, 
      "inputs": [[132, 2, 0]]
    }, 
    {
      "op": "elemwise_mul", 
      "name": "_mul72", 
      "inputs": [[134, 0, 0], [127, 0, 0]]
    }, 
    {
      "op": "Activation", 
      "name": "activation124", 
      "attrs": {"act_type": "sigmoid"}, 
      "inputs": [[132, 0, 0]]
    }, 
    {
      "op": "Activation", 
      "name": "activation125", 
      "attrs": {"act_type": "tanh"}, 
      "inputs": [[132, 1, 0]]
    }, 
    {
      "op": "elemwise_mul", 
      "name": "_mul73", 
      "inputs": [[136, 0, 0], [137, 0, 0]]
    }, 
    {
      "op": "elemwise_add", 
      "name": "_plus49", 
      "inputs": [[135, 0, 0], [138, 0, 0]]
    }, 
    {
      "op": "Activation", 
      "name": "activation128", 
      "attrs": {"act_type": "tanh"}, 
      "inputs": [[139, 0, 0]]
    }, 
    {
      "op": "elemwise_mul", 
      "name": "_mul74", 
      "inputs": [[133, 0, 0], [140, 0, 0]]
    }, 
    {
      "op": "FullyConnected", 
      "name": "t14_l1_h2h", 
      "attrs": {"num_hidden": "400"}, 
      "inputs": [[141, 0, 0], [79, 0, 0], [80, 0, 0]]
    }, 
    {
      "op": "elemwise_add", 
      "name": "_plus50", 
      "inputs": [[72, 0, 0], [142, 0, 0]]
    }, 
    {
      "op": "SliceChannel", 
      "name": "t14_l1_slice", 
      "attrs": {"num_outputs": "4"}, 
      "inputs": [[143, 0, 0]]
    }, 
    {
      "op": "Activation", 
      "name": "activation132", 
      "attrs": {"act_type": "sigmoid"}, 
      "inputs": [[144, 3, 0]]
    }, 
    {
      "op": "Activation", 
      "name": "activation131", 
      "attrs": {"act_type": "sigmoid"}, 
      "inputs": [[144, 2, 0]]
    }, 
    {
      "op": "elemwise_mul", 
      "name": "_mul75", 
      "inputs": [[146, 0, 0], [139, 0, 0]]
    }, 
    {
      "op": "Activation", 
      "name": "activation129", 
      "attrs": {"act_type": "sigmoid"}, 
      "inputs": [[144, 0, 0]]
    }, 
    {
      "op": "Activation", 
      "name": "activation130", 
      "attrs": {"act_type": "tanh"}, 
      "inputs": [[144, 1, 0]]
    }, 
    {
      "op": "elemwise_mul", 
      "name": "_mul76", 
      "inputs": [[148, 0, 0], [149, 0, 0]]
    }, 
    {
      "op": "elemwise_add", 
      "name": "_plus51", 
      "inputs": [[147, 0, 0], [150, 0, 0]]
    }, 
    {
      "op": "Activation", 
      "name": "activation133", 
      "attrs": {"act_type": "tanh"}, 
      "inputs": [[151, 0, 0]]
    }, 
    {
      "op": "elemwise_mul", 
      "name": "_mul77", 
      "inputs": [[145, 0, 0], [152, 0, 0]]
    }, 
    {
      "op": "FullyConnected", 
      "name": "t13_l1_h2h", 
      "attrs": {"num_hidden": "400"}, 
      "inputs": [[153, 0, 0], [79, 0, 0], [80, 0, 0]]
    }, 
    {
      "op": "elemwise_add", 
      "name": "_plus52", 
      "inputs": [[71, 0, 0], [154, 0, 0]]
    }, 
    {
      "op": "SliceChannel", 
      "name": "t13_l1_slice", 
      "attrs": {"num_outputs": "4"}, 
      "inputs": [[155, 0, 0]]
    }, 
    {
      "op": "Activation", 
      "name": "activation137", 
      "attrs": {"act_type": "sigmoid"}, 
      "inputs": [[156, 3, 0]]
    }, 
    {
      "op": "Activation", 
      "name": "activation136", 
      "attrs": {"act_type": "sigmoid"}, 
      "inputs": [[156, 2, 0]]
    }, 
    {
      "op": "elemwise_mul", 
      "name": "_mul78", 
      "inputs": [[158, 0, 0], [151, 0, 0]]
    }, 
    {
      "op": "Activation", 
      "name": "activation134", 
      "attrs": {"act_type": "sigmoid"}, 
      "inputs": [[156, 0, 0]]
    }, 
    {
      "op": "Activation", 
      "name": "activation135", 
      "attrs": {"act_type": "tanh"}, 
      "inputs": [[156, 1, 0]]
    }, 
    {
      "op": "elemwise_mul", 
      "name": "_mul79", 
      "inputs": [[160, 0, 0], [161, 0, 0]]
    }, 
    {
      "op": "elemwise_add", 
      "name": "_plus53", 
      "inputs": [[159, 0, 0], [162, 0, 0]]
    }, 
    {
      "op": "Activation", 
      "name": "activation138", 
      "attrs": {"act_type": "tanh"}, 
      "inputs": [[163, 0, 0]]
    }, 
    {
      "op": "elemwise_mul", 
      "name": "_mul80", 
      "inputs": [[157, 0, 0], [164, 0, 0]]
    }, 
    {
      "op": "FullyConnected", 
      "name": "t12_l1_h2h", 
      "attrs": {"num_hidden": "400"}, 
      "inputs": [[165, 0, 0], [79, 0, 0], [80, 0, 0]]
    }, 
    {
      "op": "elemwise_add", 
      "name": "_plus54", 
      "inputs": [[70, 0, 0], [166, 0, 0]]
    }, 
    {
      "op": "SliceChannel", 
      "name": "t12_l1_slice", 
      "attrs": {"num_outputs": "4"}, 
      "inputs": [[167, 0, 0]]
    }, 
    {
      "op": "Activation", 
      "name": "activation142", 
      "attrs": {"act_type": "sigmoid"}, 
      "inputs": [[168, 3, 0]]
    }, 
    {
      "op": "Activation", 
      "name": "activation141", 
      "attrs": {"act_type": "sigmoid"}, 
      "inputs": [[168, 2, 0]]
    }, 
    {
      "op": "elemwise_mul", 
      "name": "_mul81", 
      "inputs": [[170, 0, 0], [163, 0, 0]]
    }, 
    {
      "op": "Activation", 
      "name": "activation139", 
      "attrs": {"act_type": "sigmoid"}, 
      "inputs": [[168, 0, 0]]
    }, 
    {
      "op": "Activation", 
      "name": "activation140", 
      "attrs": {"act_type": "tanh"}, 
      "inputs": [[168, 1, 0]]
    }, 
    {
      "op": "elemwise_mul", 
      "name": "_mul82", 
      "inputs": [[172, 0, 0], [173, 0, 0]]
    }, 
    {
      "op": "elemwise_add", 
      "name": "_plus55", 
      "inputs": [[171, 0, 0], [174, 0, 0]]
    }, 
    {
      "op": "Activation", 
      "name": "activation143", 
      "attrs": {"act_type": "tanh"}, 
      "inputs": [[175, 0, 0]]
    }, 
    {
      "op": "elemwise_mul", 
      "name": "_mul83", 
      "inputs": [[169, 0, 0], [176, 0, 0]]
    }, 
    {
      "op": "FullyConnected", 
      "name": "t11_l1_h2h", 
      "attrs": {"num_hidden": "400"}, 
      "inputs": [[177, 0, 0], [79, 0, 0], [80, 0, 0]]
    }, 
    {
      "op": "elemwise_add", 
      "name": "_plus56", 
      "inputs": [[69, 0, 0], [178, 0, 0]]
    }, 
    {
      "op": "SliceChannel", 
      "name": "t11_l1_slice", 
      "attrs": {"num_outputs": "4"}, 
      "inputs": [[179, 0, 0]]
    }, 
    {
      "op": "Activation", 
      "name": "activation147", 
      "attrs": {"act_type": "sigmoid"}, 
      "inputs": [[180, 3, 0]]
    }, 
    {
      "op": "Activation", 
      "name": "activation146", 
      "attrs": {"act_type": "sigmoid"}, 
      "inputs": [[180, 2, 0]]
    }, 
    {
      "op": "elemwise_mul", 
      "name": "_mul84", 
      "inputs": [[182, 0, 0], [175, 0, 0]]
    }, 
    {
      "op": "Activation", 
      "name": "activation144", 
      "attrs": {"act_type": "sigmoid"}, 
      "inputs": [[180, 0, 0]]
    }, 
    {
      "op": "Activation", 
      "name": "activation145", 
      "attrs": {"act_type": "tanh"}, 
      "inputs": [[180, 1, 0]]
    }, 
    {
      "op": "elemwise_mul", 
      "name": "_mul85", 
      "inputs": [[184, 0, 0], [185, 0, 0]]
    }, 
    {
      "op": "elemwise_add", 
      "name": "_plus57", 
      "inputs": [[183, 0, 0], [186, 0, 0]]
    }, 
    {
      "op": "Activation", 
      "name": "activation148", 
      "attrs": {"act_type": "tanh"}, 
      "inputs": [[187, 0, 0]]
    }, 
    {
      "op": "elemwise_mul", 
      "name": "_mul86", 
      "inputs": [[181, 0, 0], [188, 0, 0]]
    }, 
    {
      "op": "FullyConnected", 
      "name": "t10_l1_h2h", 
      "attrs": {"num_hidden": "400"}, 
      "inputs": [[189, 0, 0], [79, 0, 0], [80, 0, 0]]
    }, 
    {
      "op": "elemwise_add", 
      "name": "_plus58", 
      "inputs": [[68, 0, 0], [190, 0, 0]]
    }, 
    {
      "op": "SliceChannel", 
      "name": "t10_l1_slice", 
      "attrs": {"num_outputs": "4"}, 
      "inputs": [[191, 0, 0]]
    }, 
    {
      "op": "Activation", 
      "name": "activation152", 
      "attrs": {"act_type": "sigmoid"}, 
      "inputs": [[192, 3, 0]]
    }, 
    {
      "op": "Activation", 
      "name": "activation151", 
      "attrs": {"act_type": "sigmoid"}, 
      "inputs": [[192, 2, 0]]
    }, 
    {
      "op": "elemwise_mul", 
      "name": "_mul87", 
      "inputs": [[194, 0, 0], [187, 0, 0]]
    }, 
    {
      "op": "Activation", 
      "name": "activation149", 
      "attrs": {"act_type": "sigmoid"}, 
      "inputs": [[192, 0, 0]]
    }, 
    {
      "op": "Activation", 
      "name": "activation150", 
      "attrs": {"act_type": "tanh"}, 
      "inputs": [[192, 1, 0]]
    }, 
    {
      "op": "elemwise_mul", 
      "name": "_mul88", 
      "inputs": [[196, 0, 0], [197, 0, 0]]
    }, 
    {
      "op": "elemwise_add", 
      "name": "_plus59", 
      "inputs": [[195, 0, 0], [198, 0, 0]]
    }, 
    {
      "op": "Activation", 
      "name": "activation153", 
      "attrs": {"act_type": "tanh"}, 
      "inputs": [[199, 0, 0]]
    }, 
    {
      "op": "elemwise_mul", 
      "name": "_mul89", 
      "inputs": [[193, 0, 0], [200, 0, 0]]
    }, 
    {
      "op": "FullyConnected", 
      "name": "t9_l1_h2h", 
      "attrs": {"num_hidden": "400"}, 
      "inputs": [[201, 0, 0], [79, 0, 0], [80, 0, 0]]
    }, 
    {
      "op": "elemwise_add", 
      "name": "_plus60", 
      "inputs": [[67, 0, 0], [202, 0, 0]]
    }, 
    {
      "op": "SliceChannel", 
      "name": "t9_l1_slice", 
      "attrs": {"num_outputs": "4"}, 
      "inputs": [[203, 0, 0]]
    }, 
    {
      "op": "Activation", 
      "name": "activation157", 
      "attrs": {"act_type": "sigmoid"}, 
      "inputs": [[204, 3, 0]]
    }, 
    {
      "op": "Activation", 
      "name": "activation156", 
      "attrs": {"act_type": "sigmoid"}, 
      "inputs": [[204, 2, 0]]
    }, 
    {
      "op": "elemwise_mul", 
      "name": "_mul90", 
      "inputs": [[206, 0, 0], [199, 0, 0]]
    }, 
    {
      "op": "Activation", 
      "name": "activation154", 
      "attrs": {"act_type": "sigmoid"}, 
      "inputs": [[204, 0, 0]]
    }, 
    {
      "op": "Activation", 
      "name": "activation155", 
      "attrs": {"act_type": "tanh"}, 
      "inputs": [[204, 1, 0]]
    }, 
    {
      "op": "elemwise_mul", 
      "name": "_mul91", 
      "inputs": [[208, 0, 0], [209, 0, 0]]
    }, 
    {
      "op": "elemwise_add", 
      "name": "_plus61", 
      "inputs": [[207, 0, 0], [210, 0, 0]]
    }, 
    {
      "op": "Activation", 
      "name": "activation158", 
      "attrs": {"act_type": "tanh"}, 
      "inputs": [[211, 0, 0]]
    }, 
    {
      "op": "elemwise_mul", 
      "name": "_mul92", 
      "inputs": [[205, 0, 0], [212, 0, 0]]
    }, 
    {
      "op": "FullyConnected", 
      "name": "t8_l1_h2h", 
      "attrs": {"num_hidden": "400"}, 
      "inputs": [[213, 0, 0], [79, 0, 0], [80, 0, 0]]
    }, 
    {
      "op": "elemwise_add", 
      "name": "_plus62", 
      "inputs": [[66, 0, 0], [214, 0, 0]]
    }, 
    {
      "op": "SliceChannel", 
      "name": "t8_l1_slice", 
      "attrs": {"num_outputs": "4"}, 
      "inputs": [[215, 0, 0]]
    }, 
    {
      "op": "Activation", 
      "name": "activation162", 
      "attrs": {"act_type": "sigmoid"}, 
      "inputs": [[216, 3, 0]]
    }, 
    {
      "op": "Activation", 
      "name": "activation161", 
      "attrs": {"act_type": "sigmoid"}, 
      "inputs": [[216, 2, 0]]
    }, 
    {
      "op": "elemwise_mul", 
      "name": "_mul93", 
      "inputs": [[218, 0, 0], [211, 0, 0]]
    }, 
    {
      "op": "Activation", 
      "name": "activation159", 
      "attrs": {"act_type": "sigmoid"}, 
      "inputs": [[216, 0, 0]]
    }, 
    {
      "op": "Activation", 
      "name": "activation160", 
      "attrs": {"act_type": "tanh"}, 
      "inputs": [[216, 1, 0]]
    }, 
    {
      "op": "elemwise_mul", 
      "name": "_mul94", 
      "inputs": [[220, 0, 0], [221, 0, 0]]
    }, 
    {
      "op": "elemwise_add", 
      "name": "_plus63", 
      "inputs": [[219, 0, 0], [222, 0, 0]]
    }, 
    {
      "op": "Activation", 
      "name": "activation163", 
      "attrs": {"act_type": "tanh"}, 
      "inputs": [[223, 0, 0]]
    }, 
    {
      "op": "elemwise_mul", 
      "name": "_mul95", 
      "inputs": [[217, 0, 0], [224, 0, 0]]
    }, 
    {
      "op": "FullyConnected", 
      "name": "t7_l1_h2h", 
      "attrs": {"num_hidden": "400"}, 
      "inputs": [[225, 0, 0], [79, 0, 0], [80, 0, 0]]
    }, 
    {
      "op": "elemwise_add", 
      "name": "_plus64", 
      "inputs": [[65, 0, 0], [226, 0, 0]]
    }, 
    {
      "op": "SliceChannel", 
      "name": "t7_l1_slice", 
      "attrs": {"num_outputs": "4"}, 
      "inputs": [[227, 0, 0]]
    }, 
    {
      "op": "Activation", 
      "name": "activation167", 
      "attrs": {"act_type": "sigmoid"}, 
      "inputs": [[228, 3, 0]]
    }, 
    {
      "op": "Activation", 
      "name": "activation166", 
      "attrs": {"act_type": "sigmoid"}, 
      "inputs": [[228, 2, 0]]
    }, 
    {
      "op": "elemwise_mul", 
      "name": "_mul96", 
      "inputs": [[230, 0, 0], [223, 0, 0]]
    }, 
    {
      "op": "Activation", 
      "name": "activation164", 
      "attrs": {"act_type": "sigmoid"}, 
      "inputs": [[228, 0, 0]]
    }, 
    {
      "op": "Activation", 
      "name": "activation165", 
      "attrs": {"act_type": "tanh"}, 
      "inputs": [[228, 1, 0]]
    }, 
    {
      "op": "elemwise_mul", 
      "name": "_mul97", 
      "inputs": [[232, 0, 0], [233, 0, 0]]
    }, 
    {
      "op": "elemwise_add", 
      "name": "_plus65", 
      "inputs": [[231, 0, 0], [234, 0, 0]]
    }, 
    {
      "op": "Activation", 
      "name": "activation168", 
      "attrs": {"act_type": "tanh"}, 
      "inputs": [[235, 0, 0]]
    }, 
    {
      "op": "elemwise_mul", 
      "name": "_mul98", 
      "inputs": [[229, 0, 0], [236, 0, 0]]
    }, 
    {
      "op": "FullyConnected", 
      "name": "t6_l1_h2h", 
      "attrs": {"num_hidden": "400"}, 
      "inputs": [[237, 0, 0], [79, 0, 0], [80, 0, 0]]
    }, 
    {
      "op": "elemwise_add", 
      "name": "_plus66", 
      "inputs": [[64, 0, 0], [238, 0, 0]]
    }, 
    {
      "op": "SliceChannel", 
      "name": "t6_l1_slice", 
      "attrs": {"num_outputs": "4"}, 
      "inputs": [[239, 0, 0]]
    }, 
    {
      "op": "Activation", 
      "name": "activation172", 
      "attrs": {"act_type": "sigmoid"}, 
      "inputs": [[240, 3, 0]]
    }, 
    {
      "op": "Activation", 
      "name": "activation171", 
      "attrs": {"act_type": "sigmoid"}, 
      "inputs": [[240, 2, 0]]
    }, 
    {
      "op": "elemwise_mul", 
      "name": "_mul99", 
      "inputs": [[242, 0, 0], [235, 0, 0]]
    }, 
    {
      "op": "Activation", 
      "name": "activation169", 
      "attrs": {"act_type": "sigmoid"}, 
      "inputs": [[240, 0, 0]]
    }, 
    {
      "op": "Activation", 
      "name": "activation170", 
      "attrs": {"act_type": "tanh"}, 
      "inputs": [[240, 1, 0]]
    }, 
    {
      "op": "elemwise_mul", 
      "name": "_mul100", 
      "inputs": [[244, 0, 0], [245, 0, 0]]
    }, 
    {
      "op": "elemwise_add", 
      "name": "_plus67", 
      "inputs": [[243, 0, 0], [246, 0, 0]]
    }, 
    {
      "op": "Activation", 
      "name": "activation173", 
      "attrs": {"act_type": "tanh"}, 
      "inputs": [[247, 0, 0]]
    }, 
    {
      "op": "elemwise_mul", 
      "name": "_mul101", 
      "inputs": [[241, 0, 0], [248, 0, 0]]
    }, 
    {
      "op": "FullyConnected", 
      "name": "t5_l1_h2h", 
      "attrs": {"num_hidden": "400"}, 
      "inputs": [[249, 0, 0], [79, 0, 0], [80, 0, 0]]
    }, 
    {
      "op": "elemwise_add", 
      "name": "_plus68", 
      "inputs": [[63, 0, 0], [250, 0, 0]]
    }, 
    {
      "op": "SliceChannel", 
      "name": "t5_l1_slice", 
      "attrs": {"num_outputs": "4"}, 
      "inputs": [[251, 0, 0]]
    }, 
    {
      "op": "Activation", 
      "name": "activation177", 
      "attrs": {"act_type": "sigmoid"}, 
      "inputs": [[252, 3, 0]]
    }, 
    {
      "op": "Activation", 
      "name": "activation176", 
      "attrs": {"act_type": "sigmoid"}, 
      "inputs": [[252, 2, 0]]
    }, 
    {
      "op": "elemwise_mul", 
      "name": "_mul102", 
      "inputs": [[254, 0, 0], [247, 0, 0]]
    }, 
    {
      "op": "Activation", 
      "name": "activation174", 
      "attrs": {"act_type": "sigmoid"}, 
      "inputs": [[252, 0, 0]]
    }, 
    {
      "op": "Activation", 
      "name": "activation175", 
      "attrs": {"act_type": "tanh"}, 
      "inputs": [[252, 1, 0]]
    }, 
    {
      "op": "elemwise_mul", 
      "name": "_mul103", 
      "inputs": [[256, 0, 0], [257, 0, 0]]
    }, 
    {
      "op": "elemwise_add", 
      "name": "_plus69", 
      "inputs": [[255, 0, 0], [258, 0, 0]]
    }, 
    {
      "op": "Activation", 
      "name": "activation178", 
      "attrs": {"act_type": "tanh"}, 
      "inputs": [[259, 0, 0]]
    }, 
    {
      "op": "elemwise_mul", 
      "name": "_mul104", 
      "inputs": [[253, 0, 0], [260, 0, 0]]
    }, 
    {
      "op": "FullyConnected", 
      "name": "t4_l1_h2h", 
      "attrs": {"num_hidden": "400"}, 
      "inputs": [[261, 0, 0], [79, 0, 0], [80, 0, 0]]
    }, 
    {
      "op": "elemwise_add", 
      "name": "_plus70", 
      "inputs": [[62, 0, 0], [262, 0, 0]]
    }, 
    {
      "op": "SliceChannel", 
      "name": "t4_l1_slice", 
      "attrs": {"num_outputs": "4"}, 
      "inputs": [[263, 0, 0]]
    }, 
    {
      "op": "Activation", 
      "name": "activation182", 
      "attrs": {"act_type": "sigmoid"}, 
      "inputs": [[264, 3, 0]]
    }, 
    {
      "op": "Activation", 
      "name": "activation181", 
      "attrs": {"act_type": "sigmoid"}, 
      "inputs": [[264, 2, 0]]
    }, 
    {
      "op": "elemwise_mul", 
      "name": "_mul105", 
      "inputs": [[266, 0, 0], [259, 0, 0]]
    }, 
    {
      "op": "Activation", 
      "name": "activation179", 
      "attrs": {"act_type": "sigmoid"}, 
      "inputs": [[264, 0, 0]]
    }, 
    {
      "op": "Activation", 
      "name": "activation180", 
      "attrs": {"act_type": "tanh"}, 
      "inputs": [[264, 1, 0]]
    }, 
    {
      "op": "elemwise_mul", 
      "name": "_mul106", 
      "inputs": [[268, 0, 0], [269, 0, 0]]
    }, 
    {
      "op": "elemwise_add", 
      "name": "_plus71", 
      "inputs": [[267, 0, 0], [270, 0, 0]]
    }, 
    {
      "op": "Activation", 
      "name": "activation183", 
      "attrs": {"act_type": "tanh"}, 
      "inputs": [[271, 0, 0]]
    }, 
    {
      "op": "elemwise_mul", 
      "name": "_mul107", 
      "inputs": [[265, 0, 0], [272, 0, 0]]
    }, 
    {
      "op": "FullyConnected", 
      "name": "t3_l1_h2h", 
      "attrs": {"num_hidden": "400"}, 
      "inputs": [[273, 0, 0], [79, 0, 0], [80, 0, 0]]
    }, 
    {
      "op": "elemwise_add", 
      "name": "_plus72", 
      "inputs": [[61, 0, 0], [274, 0, 0]]
    }, 
    {
      "op": "SliceChannel", 
      "name": "t3_l1_slice", 
      "attrs": {"num_outputs": "4"}, 
      "inputs": [[275, 0, 0]]
    }, 
    {
      "op": "Activation", 
      "name": "activation187", 
      "attrs": {"act_type": "sigmoid"}, 
      "inputs": [[276, 3, 0]]
    }, 
    {
      "op": "Activation", 
      "name": "activation186", 
      "attrs": {"act_type": "sigmoid"}, 
      "inputs": [[276, 2, 0]]
    }, 
    {
      "op": "elemwise_mul", 
      "name": "_mul108", 
      "inputs": [[278, 0, 0], [271, 0, 0]]
    }, 
    {
      "op": "Activation", 
      "name": "activation184", 
      "attrs": {"act_type": "sigmoid"}, 
      "inputs": [[276, 0, 0]]
    }, 
    {
      "op": "Activation", 
      "name": "activation185", 
      "attrs": {"act_type": "tanh"}, 
      "inputs": [[276, 1, 0]]
    }, 
    {
      "op": "elemwise_mul", 
      "name": "_mul109", 
      "inputs": [[280, 0, 0], [281, 0, 0]]
    }, 
    {
      "op": "elemwise_add", 
      "name": "_plus73", 
      "inputs": [[279, 0, 0], [282, 0, 0]]
    }, 
    {
      "op": "Activation", 
      "name": "activation188", 
      "attrs": {"act_type": "tanh"}, 
      "inputs": [[283, 0, 0]]
    }, 
    {
      "op": "elemwise_mul", 
      "name": "_mul110", 
      "inputs": [[277, 0, 0], [284, 0, 0]]
    }, 
    {
      "op": "FullyConnected", 
      "name": "t2_l1_h2h", 
      "attrs": {"num_hidden": "400"}, 
      "inputs": [[285, 0, 0], [79, 0, 0], [80, 0, 0]]
    }, 
    {
      "op": "elemwise_add", 
      "name": "_plus74", 
      "inputs": [[60, 0, 0], [286, 0, 0]]
    }, 
    {
      "op": "SliceChannel", 
      "name": "t2_l1_slice", 
      "attrs": {"num_outputs": "4"}, 
      "inputs": [[287, 0, 0]]
    }, 
    {
      "op": "Activation", 
      "name": "activation192", 
      "attrs": {"act_type": "sigmoid"}, 
      "inputs": [[288, 3, 0]]
    }, 
    {
      "op": "Activation", 
      "name": "activation191", 
      "attrs": {"act_type": "sigmoid"}, 
      "inputs": [[288, 2, 0]]
    }, 
    {
      "op": "elemwise_mul", 
      "name": "_mul111", 
      "inputs": [[290, 0, 0], [283, 0, 0]]
    }, 
    {
      "op": "Activation", 
      "name": "activation189", 
      "attrs": {"act_type": "sigmoid"}, 
      "inputs": [[288, 0, 0]]
    }, 
    {
      "op": "Activation", 
      "name": "activation190", 
      "attrs": {"act_type": "tanh"}, 
      "inputs": [[288, 1, 0]]
    }, 
    {
      "op": "elemwise_mul", 
      "name": "_mul112", 
      "inputs": [[292, 0, 0], [293, 0, 0]]
    }, 
    {
      "op": "elemwise_add", 
      "name": "_plus75", 
      "inputs": [[291, 0, 0], [294, 0, 0]]
    }, 
    {
      "op": "Activation", 
      "name": "activation193", 
      "attrs": {"act_type": "tanh"}, 
      "inputs": [[295, 0, 0]]
    }, 
    {
      "op": "elemwise_mul", 
      "name": "_mul113", 
      "inputs": [[289, 0, 0], [296, 0, 0]]
    }, 
    {
      "op": "FullyConnected", 
      "name": "t1_l1_h2h", 
      "attrs": {"num_hidden": "400"}, 
      "inputs": [[297, 0, 0], [79, 0, 0], [80, 0, 0]]
    }, 
    {
      "op": "elemwise_add", 
      "name": "_plus76", 
      "inputs": [[59, 0, 0], [298, 0, 0]]
    }, 
    {
      "op": "SliceChannel", 
      "name": "t1_l1_slice", 
      "attrs": {"num_outputs": "4"}, 
      "inputs": [[299, 0, 0]]
    }, 
    {
      "op": "Activation", 
      "name": "activation197", 
      "attrs": {"act_type": "sigmoid"}, 
      "inputs": [[300, 3, 0]]
    }, 
    {
      "op": "Activation", 
      "name": "activation196", 
      "attrs": {"act_type": "sigmoid"}, 
      "inputs": [[300, 2, 0]]
    }, 
    {
      "op": "elemwise_mul", 
      "name": "_mul114", 
      "inputs": [[302, 0, 0], [295, 0, 0]]
    }, 
    {
      "op": "Activation", 
      "name": "activation194", 
      "attrs": {"act_type": "sigmoid"}, 
      "inputs": [[300, 0, 0]]
    }, 
    {
      "op": "Activation", 
      "name": "activation195", 
      "attrs": {"act_type": "tanh"}, 
      "inputs": [[300, 1, 0]]
    }, 
    {
      "op": "elemwise_mul", 
      "name": "_mul115", 
      "inputs": [[304, 0, 0], [305, 0, 0]]
    }, 
    {
      "op": "elemwise_add", 
      "name": "_plus77", 
      "inputs": [[303, 0, 0], [306, 0, 0]]
    }, 
    {
      "op": "Activation", 
      "name": "activation198", 
      "attrs": {"act_type": "tanh"}, 
      "inputs": [[307, 0, 0]]
    }, 
    {
      "op": "elemwise_mul", 
      "name": "_mul116", 
      "inputs": [[301, 0, 0], [308, 0, 0]]
    }, 
    {
      "op": "FullyConnected", 
      "name": "t0_l1_h2h", 
      "attrs": {"num_hidden": "400"}, 
      "inputs": [[309, 0, 0], [79, 0, 0], [80, 0, 0]]
    }, 
    {
      "op": "elemwise_add", 
      "name": "_plus78", 
      "inputs": [[58, 0, 0], [310, 0, 0]]
    }, 
    {
      "op": "SliceChannel", 
      "name": "t0_l1_slice", 
      "attrs": {"num_outputs": "4"}, 
      "inputs": [[311, 0, 0]]
    }, 
    {
      "op": "Activation", 
      "name": "activation202", 
      "attrs": {"act_type": "sigmoid"}, 
      "inputs": [[312, 3, 0]]
    }, 
    {
      "op": "Activation", 
      "name": "activation201", 
      "attrs": {"act_type": "sigmoid"}, 
      "inputs": [[312, 2, 0]]
    }, 
    {
      "op": "elemwise_mul", 
      "name": "_mul117", 
      "inputs": [[314, 0, 0], [307, 0, 0]]
    }, 
    {
      "op": "Activation", 
      "name": "activation199", 
      "attrs": {"act_type": "sigmoid"}, 
      "inputs": [[312, 0, 0]]
    }, 
    {
      "op": "Activation", 
      "name": "activation200", 
      "attrs": {"act_type": "tanh"}, 
      "inputs": [[312, 1, 0]]
    }, 
    {
      "op": "elemwise_mul", 
      "name": "_mul118", 
      "inputs": [[316, 0, 0], [317, 0, 0]]
    }, 
    {
      "op": "elemwise_add", 
      "name": "_plus79", 
      "inputs": [[315, 0, 0], [318, 0, 0]]
    }, 
    {
      "op": "Activation", 
      "name": "activation203", 
      "attrs": {"act_type": "tanh"}, 
      "inputs": [[319, 0, 0]]
    }, 
    {
      "op": "elemwise_mul", 
      "name": "_mul119", 
      "inputs": [[313, 0, 0], [320, 0, 0]]
    }, 
    {
      "op": "Concat", 
      "name": "concat19", 
      "attrs": {"num_args": "2"}, 
      "inputs": [[55, 0, 0], [321, 0, 0]]
    }, 
    {
      "op": "null", 
      "name": "l2_i2h_weight", 
      "inputs": []
    }, 
    {
      "op": "null", 
      "name": "l2_i2h_bias", 
      "inputs": []
    }, 
    {
      "op": "FullyConnected", 
      "name": "t0_l2_i2h", 
      "attrs": {"num_hidden": "400"}, 
      "inputs": [[322, 0, 0], [323, 0, 0], [324, 0, 0]]
    }, 
    {
      "op": "null", 
      "name": "l2_init_h", 
      "inputs": []
    }, 
    {
      "op": "null", 
      "name": "l2_h2h_weight", 
      "inputs": []
    }, 
    {
      "op": "null", 
      "name": "l2_h2h_bias", 
      "inputs": []
    }, 
    {
      "op": "FullyConnected", 
      "name": "t0_l2_h2h", 
      "attrs": {"num_hidden": "400"}, 
      "inputs": [[326, 0, 0], [327, 0, 0], [328, 0, 0]]
    }, 
    {
      "op": "elemwise_add", 
      "name": "_plus80", 
      "inputs": [[325, 0, 0], [329, 0, 0]]
    }, 
    {
      "op": "SliceChannel", 
      "name": "t0_l2_slice", 
      "attrs": {"num_outputs": "4"}, 
      "inputs": [[330, 0, 0]]
    }, 
    {
      "op": "Activation", 
      "name": "activation207", 
      "attrs": {"act_type": "sigmoid"}, 
      "inputs": [[331, 3, 0]]
    }, 
    {
      "op": "Activation", 
      "name": "activation206", 
      "attrs": {"act_type": "sigmoid"}, 
      "inputs": [[331, 2, 0]]
    }, 
    {
      "op": "null", 
      "name": "l2_init_c", 
      "inputs": []
    }, 
    {
      "op": "elemwise_mul", 
      "name": "_mul120", 
      "inputs": [[333, 0, 0], [334, 0, 0]]
    }, 
    {
      "op": "Activation", 
      "name": "activation204", 
      "attrs": {"act_type": "sigmoid"}, 
      "inputs": [[331, 0, 0]]
    }, 
    {
      "op": "Activation", 
      "name": "activation205", 
      "attrs": {"act_type": "tanh"}, 
      "inputs": [[331, 1, 0]]
    }, 
    {
      "op": "elemwise_mul", 
      "name": "_mul121", 
      "inputs": [[336, 0, 0], [337, 0, 0]]
    }, 
    {
      "op": "elemwise_add", 
      "name": "_plus81", 
      "inputs": [[335, 0, 0], [338, 0, 0]]
    }, 
    {
      "op": "Activation", 
      "name": "activation208", 
      "attrs": {"act_type": "tanh"}, 
      "inputs": [[339, 0, 0]]
    }, 
    {
      "op": "elemwise_mul", 
      "name": "_mul122", 
      "inputs": [[332, 0, 0], [340, 0, 0]]
    }, 
    {
      "op": "null", 
      "name": "l3_i2h_weight", 
      "inputs": []
    }, 
    {
      "op": "null", 
      "name": "l3_i2h_bias", 
      "inputs": []
    }, 
    {
      "op": "FullyConnected", 
      "name": "t0_l3_i2h", 
      "attrs": {"num_hidden": "400"}, 
      "inputs": [[322, 0, 0], [342, 0, 0], [343, 0, 0]]
    }, 
    {
      "op": "FullyConnected", 
      "name": "t1_l0_i2h", 
      "attrs": {"num_hidden": "400"}, 
      "inputs": [[36, 1, 0], [37, 0, 0], [38, 0, 0]]
    }, 
    {
      "op": "FullyConnected", 
      "name": "t1_l0_h2h", 
      "attrs": {"num_hidden": "400"}, 
      "inputs": [[55, 0, 0], [41, 0, 0], [42, 0, 0]]
    }, 
    {
      "op": "elemwise_add", 
      "name": "_plus2", 
      "inputs": [[345, 0, 0], [346, 0, 0]]
    }, 
    {
      "op": "SliceChannel", 
      "name": "t1_l0_slice", 
      "attrs": {"num_outputs": "4"}, 
      "inputs": [[347, 0, 0]]
    }, 
    {
      "op": "Activation", 
      "name": "activation12", 
      "attrs": {"act_type": "sigmoid"}, 
      "inputs": [[348, 3, 0]]
    }, 
    {
      "op": "Activation", 
      "name": "activation11", 
      "attrs": {"act_type": "sigmoid"}, 
      "inputs": [[348, 2, 0]]
    }, 
    {
      "op": "elemwise_mul", 
      "name": "_mul3", 
      "inputs": [[350, 0, 0], [53, 0, 0]]
    }, 
    {
      "op": "Activation", 
      "name": "activation9", 
      "attrs": {"act_type": "sigmoid"}, 
      "inputs": [[348, 0, 0]]
    }, 
    {
      "op": "Activation", 
      "name": "activation10", 
      "attrs": {"act_type": "tanh"}, 
      "inputs": [[348, 1, 0]]
    }, 
    {
      "op": "elemwise_mul", 
      "name": "_mul4", 
      "inputs": [[352, 0, 0], [353, 0, 0]]
    }, 
    {
      "op": "elemwise_add", 
      "name": "_plus3", 
      "inputs": [[351, 0, 0], [354, 0, 0]]
    }, 
    {
      "op": "Activation", 
      "name": "activation13", 
      "attrs": {"act_type": "tanh"}, 
      "inputs": [[355, 0, 0]]
    }, 
    {
      "op": "elemwise_mul", 
      "name": "_mul5", 
      "inputs": [[349, 0, 0], [356, 0, 0]]
    }, 
    {
      "op": "Concat", 
      "name": "concat18", 
      "attrs": {"num_args": "2"}, 
      "inputs": [[357, 0, 0], [309, 0, 0]]
    }, 
    {
      "op": "FullyConnected", 
      "name": "t1_l3_i2h", 
      "attrs": {"num_hidden": "400"}, 
      "inputs": [[358, 0, 0], [342, 0, 0], [343, 0, 0]]
    }, 
    {
      "op": "FullyConnected", 
      "name": "t2_l0_i2h", 
      "attrs": {"num_hidden": "400"}, 
      "inputs": [[36, 2, 0], [37, 0, 0], [38, 0, 0]]
    }, 
    {
      "op": "FullyConnected", 
      "name": "t2_l0_h2h", 
      "attrs": {"num_hidden": "400"}, 
      "inputs": [[357, 0, 0], [41, 0, 0], [42, 0, 0]]
    }, 
    {
      "op": "elemwise_add", 
      "name": "_plus4", 
      "inputs": [[360, 0, 0], [361, 0, 0]]
    }, 
    {
      "op": "SliceChannel", 
      "name": "t2_l0_slice", 
      "attrs": {"num_outputs": "4"}, 
      "inputs": [[362, 0, 0]]
    }, 
    {
      "op": "Activation", 
      "name": "activation17", 
      "attrs": {"act_type": "sigmoid"}, 
      "inputs": [[363, 3, 0]]
    }, 
    {
      "op": "Activation", 
      "name": "activation16", 
      "attrs": {"act_type": "sigmoid"}, 
      "inputs": [[363, 2, 0]]
    }, 
    {
      "op": "elemwise_mul", 
      "name": "_mul6", 
      "inputs": [[365, 0, 0], [355, 0, 0]]
    }, 
    {
      "op": "Activation", 
      "name": "activation14", 
      "attrs": {"act_type": "sigmoid"}, 
      "inputs": [[363, 0, 0]]
    }, 
    {
      "op": "Activation", 
      "name": "activation15", 
      "attrs": {"act_type": "tanh"}, 
      "inputs": [[363, 1, 0]]
    }, 
    {
      "op": "elemwise_mul", 
      "name": "_mul7", 
      "inputs": [[367, 0, 0], [368, 0, 0]]
    }, 
    {
      "op": "elemwise_add", 
      "name": "_plus5", 
      "inputs": [[366, 0, 0], [369, 0, 0]]
    }, 
    {
      "op": "Activation", 
      "name": "activation18", 
      "attrs": {"act_type": "tanh"}, 
      "inputs": [[370, 0, 0]]
    }, 
    {
      "op": "elemwise_mul", 
      "name": "_mul8", 
      "inputs": [[364, 0, 0], [371, 0, 0]]
    }, 
    {
      "op": "Concat", 
      "name": "concat17", 
      "attrs": {"num_args": "2"}, 
      "inputs": [[372, 0, 0], [297, 0, 0]]
    }, 
    {
      "op": "FullyConnected", 
      "name": "t2_l3_i2h", 
      "attrs": {"num_hidden": "400"}, 
      "inputs": [[373, 0, 0], [342, 0, 0], [343, 0, 0]]
    }, 
    {
      "op": "FullyConnected", 
      "name": "t3_l0_i2h", 
      "attrs": {"num_hidden": "400"}, 
      "inputs": [[36, 3, 0], [37, 0, 0], [38, 0, 0]]
    }, 
    {
      "op": "FullyConnected", 
      "name": "t3_l0_h2h", 
      "attrs": {"num_hidden": "400"}, 
      "inputs": [[372, 0, 0], [41, 0, 0], [42, 0, 0]]
    }, 
    {
      "op": "elemwise_add", 
      "name": "_plus6", 
      "inputs": [[375, 0, 0], [376, 0, 0]]
    }, 
    {
      "op": "SliceChannel", 
      "name": "t3_l0_slice", 
      "attrs": {"num_outputs": "4"}, 
      "inputs": [[377, 0, 0]]
    }, 
    {
      "op": "Activation", 
      "name": "activation22", 
      "attrs": {"act_type": "sigmoid"}, 
      "inputs": [[378, 3, 0]]
    }, 
    {
      "op": "Activation", 
      "name": "activation21", 
      "attrs": {"act_type": "sigmoid"}, 
      "inputs": [[378, 2, 0]]
    }, 
    {
      "op": "elemwise_mul", 
      "name": "_mul9", 
      "inputs": [[380, 0, 0], [370, 0, 0]]
    }, 
    {
      "op": "Activation", 
      "name": "activation19", 
      "attrs": {"act_type": "sigmoid"}, 
      "inputs": [[378, 0, 0]]
    }, 
    {
      "op": "Activation", 
      "name": "activation20", 
      "attrs": {"act_type": "tanh"}, 
      "inputs": [[378, 1, 0]]
    }, 
    {
      "op": "elemwise_mul", 
      "name": "_mul10", 
      "inputs": [[382, 0, 0], [383, 0, 0]]
    }, 
    {
      "op": "elemwise_add", 
      "name": "_plus7", 
      "inputs": [[381, 0, 0], [384, 0, 0]]
    }, 
    {
      "op": "Activation", 
      "name": "activation23", 
      "attrs": {"act_type": "tanh"}, 
      "inputs": [[385, 0, 0]]
    }, 
    {
      "op": "elemwise_mul", 
      "name": "_mul11", 
      "inputs": [[379, 0, 0], [386, 0, 0]]
    }, 
    {
      "op": "Concat", 
      "name": "concat16", 
      "attrs": {"num_args": "2"}, 
      "inputs": [[387, 0, 0], [285, 0, 0]]
    }, 
    {
      "op": "FullyConnected", 
      "name": "t3_l3_i2h", 
      "attrs": {"num_hidden": "400"}, 
      "inputs": [[388, 0, 0], [342, 0, 0], [343, 0, 0]]
    }, 
    {
      "op": "FullyConnected", 
      "name": "t4_l0_i2h", 
      "attrs": {"num_hidden": "400"}, 
      "inputs": [[36, 4, 0], [37, 0, 0], [38, 0, 0]]
    }, 
    {
      "op": "FullyConnected", 
      "name": "t4_l0_h2h", 
      "attrs": {"num_hidden": "400"}, 
      "inputs": [[387, 0, 0], [41, 0, 0], [42, 0, 0]]
    }, 
    {
      "op": "elemwise_add", 
      "name": "_plus8", 
      "inputs": [[390, 0, 0], [391, 0, 0]]
    }, 
    {
      "op": "SliceChannel", 
      "name": "t4_l0_slice", 
      "attrs": {"num_outputs": "4"}, 
      "inputs": [[392, 0, 0]]
    }, 
    {
      "op": "Activation", 
      "name": "activation27", 
      "attrs": {"act_type": "sigmoid"}, 
      "inputs": [[393, 3, 0]]
    }, 
    {
      "op": "Activation", 
      "name": "activation26", 
      "attrs": {"act_type": "sigmoid"}, 
      "inputs": [[393, 2, 0]]
    }, 
    {
      "op": "elemwise_mul", 
      "name": "_mul12", 
      "inputs": [[395, 0, 0], [385, 0, 0]]
    }, 
    {
      "op": "Activation", 
      "name": "activation24", 
      "attrs": {"act_type": "sigmoid"}, 
      "inputs": [[393, 0, 0]]
    }, 
    {
      "op": "Activation", 
      "name": "activation25", 
      "attrs": {"act_type": "tanh"}, 
      "inputs": [[393, 1, 0]]
    }, 
    {
      "op": "elemwise_mul", 
      "name": "_mul13", 
      "inputs": [[397, 0, 0], [398, 0, 0]]
    }, 
    {
      "op": "elemwise_add", 
      "name": "_plus9", 
      "inputs": [[396, 0, 0], [399, 0, 0]]
    }, 
    {
      "op": "Activation", 
      "name": "activation28", 
      "attrs": {"act_type": "tanh"}, 
      "inputs": [[400, 0, 0]]
    }, 
    {
      "op": "elemwise_mul", 
      "name": "_mul14", 
      "inputs": [[394, 0, 0], [401, 0, 0]]
    }, 
    {
      "op": "Concat", 
      "name": "concat15", 
      "attrs": {"num_args": "2"}, 
      "inputs": [[402, 0, 0], [273, 0, 0]]
    }, 
    {
      "op": "FullyConnected", 
      "name": "t4_l3_i2h", 
      "attrs": {"num_hidden": "400"}, 
      "inputs": [[403, 0, 0], [342, 0, 0], [343, 0, 0]]
    }, 
    {
      "op": "FullyConnected", 
      "name": "t5_l0_i2h", 
      "attrs": {"num_hidden": "400"}, 
      "inputs": [[36, 5, 0], [37, 0, 0], [38, 0, 0]]
    }, 
    {
      "op": "FullyConnected", 
      "name": "t5_l0_h2h", 
      "attrs": {"num_hidden": "400"}, 
      "inputs": [[402, 0, 0], [41, 0, 0], [42, 0, 0]]
    }, 
    {
      "op": "elemwise_add", 
      "name": "_plus10", 
      "inputs": [[405, 0, 0], [406, 0, 0]]
    }, 
    {
      "op": "SliceChannel", 
      "name": "t5_l0_slice", 
      "attrs": {"num_outputs": "4"}, 
      "inputs": [[407, 0, 0]]
    }, 
    {
      "op": "Activation", 
      "name": "activation32", 
      "attrs": {"act_type": "sigmoid"}, 
      "inputs": [[408, 3, 0]]
    }, 
    {
      "op": "Activation", 
      "name": "activation31", 
      "attrs": {"act_type": "sigmoid"}, 
      "inputs": [[408, 2, 0]]
    }, 
    {
      "op": "elemwise_mul", 
      "name": "_mul15", 
      "inputs": [[410, 0, 0], [400, 0, 0]]
    }, 
    {
      "op": "Activation", 
      "name": "activation29", 
      "attrs": {"act_type": "sigmoid"}, 
      "inputs": [[408, 0, 0]]
    }, 
    {
      "op": "Activation", 
      "name": "activation30", 
      "attrs": {"act_type": "tanh"}, 
      "inputs": [[408, 1, 0]]
    }, 
    {
      "op": "elemwise_mul", 
      "name": "_mul16", 
      "inputs": [[412, 0, 0], [413, 0, 0]]
    }, 
    {
      "op": "elemwise_add", 
      "name": "_plus11", 
      "inputs": [[411, 0, 0], [414, 0, 0]]
    }, 
    {
      "op": "Activation", 
      "name": "activation33", 
      "attrs": {"act_type": "tanh"}, 
      "inputs": [[415, 0, 0]]
    }, 
    {
      "op": "elemwise_mul", 
      "name": "_mul17", 
      "inputs": [[409, 0, 0], [416, 0, 0]]
    }, 
    {
      "op": "Concat", 
      "name": "concat14", 
      "attrs": {"num_args": "2"}, 
      "inputs": [[417, 0, 0], [261, 0, 0]]
    }, 
    {
      "op": "FullyConnected", 
      "name": "t5_l3_i2h", 
      "attrs": {"num_hidden": "400"}, 
      "inputs": [[418, 0, 0], [342, 0, 0], [343, 0, 0]]
    }, 
    {
      "op": "FullyConnected", 
      "name": "t6_l0_i2h", 
      "attrs": {"num_hidden": "400"}, 
      "inputs": [[36, 6, 0], [37, 0, 0], [38, 0, 0]]
    }, 
    {
      "op": "FullyConnected", 
      "name": "t6_l0_h2h", 
      "attrs": {"num_hidden": "400"}, 
      "inputs": [[417, 0, 0], [41, 0, 0], [42, 0, 0]]
    }, 
    {
      "op": "elemwise_add", 
      "name": "_plus12", 
      "inputs": [[420, 0, 0], [421, 0, 0]]
    }, 
    {
      "op": "SliceChannel", 
      "name": "t6_l0_slice", 
      "attrs": {"num_outputs": "4"}, 
      "inputs": [[422, 0, 0]]
    }, 
    {
      "op": "Activation", 
      "name": "activation37", 
      "attrs": {"act_type": "sigmoid"}, 
      "inputs": [[423, 3, 0]]
    }, 
    {
      "op": "Activation", 
      "name": "activation36", 
      "attrs": {"act_type": "sigmoid"}, 
      "inputs": [[423, 2, 0]]
    }, 
    {
      "op": "elemwise_mul", 
      "name": "_mul18", 
      "inputs": [[425, 0, 0], [415, 0, 0]]
    }, 
    {
      "op": "Activation", 
      "name": "activation34", 
      "attrs": {"act_type": "sigmoid"}, 
      "inputs": [[423, 0, 0]]
    }, 
    {
      "op": "Activation", 
      "name": "activation35", 
      "attrs": {"act_type": "tanh"}, 
      "inputs": [[423, 1, 0]]
    }, 
    {
      "op": "elemwise_mul", 
      "name": "_mul19", 
      "inputs": [[427, 0, 0], [428, 0, 0]]
    }, 
    {
      "op": "elemwise_add", 
      "name": "_plus13", 
      "inputs": [[426, 0, 0], [429, 0, 0]]
    }, 
    {
      "op": "Activation", 
      "name": "activation38", 
      "attrs": {"act_type": "tanh"}, 
      "inputs": [[430, 0, 0]]
    }, 
    {
      "op": "elemwise_mul", 
      "name": "_mul20", 
      "inputs": [[424, 0, 0], [431, 0, 0]]
    }, 
    {
      "op": "Concat", 
      "name": "concat13", 
      "attrs": {"num_args": "2"}, 
      "inputs": [[432, 0, 0], [249, 0, 0]]
    }, 
    {
      "op": "FullyConnected", 
      "name": "t6_l3_i2h", 
      "attrs": {"num_hidden": "400"}, 
      "inputs": [[433, 0, 0], [342, 0, 0], [343, 0, 0]]
    }, 
    {
      "op": "FullyConnected", 
      "name": "t7_l0_i2h", 
      "attrs": {"num_hidden": "400"}, 
      "inputs": [[36, 7, 0], [37, 0, 0], [38, 0, 0]]
    }, 
    {
      "op": "FullyConnected", 
      "name": "t7_l0_h2h", 
      "attrs": {"num_hidden": "400"}, 
      "inputs": [[432, 0, 0], [41, 0, 0], [42, 0, 0]]
    }, 
    {
      "op": "elemwise_add", 
      "name": "_plus14", 
      "inputs": [[435, 0, 0], [436, 0, 0]]
    }, 
    {
      "op": "SliceChannel", 
      "name": "t7_l0_slice", 
      "attrs": {"num_outputs": "4"}, 
      "inputs": [[437, 0, 0]]
    }, 
    {
      "op": "Activation", 
      "name": "activation42", 
      "attrs": {"act_type": "sigmoid"}, 
      "inputs": [[438, 3, 0]]
    }, 
    {
      "op": "Activation", 
      "name": "activation41", 
      "attrs": {"act_type": "sigmoid"}, 
      "inputs": [[438, 2, 0]]
    }, 
    {
      "op": "elemwise_mul", 
      "name": "_mul21", 
      "inputs": [[440, 0, 0], [430, 0, 0]]
    }, 
    {
      "op": "Activation", 
      "name": "activation39", 
      "attrs": {"act_type": "sigmoid"}, 
      "inputs": [[438, 0, 0]]
    }, 
    {
      "op": "Activation", 
      "name": "activation40", 
      "attrs": {"act_type": "tanh"}, 
      "inputs": [[438, 1, 0]]
    }, 
    {
      "op": "elemwise_mul", 
      "name": "_mul22", 
      "inputs": [[442, 0, 0], [443, 0, 0]]
    }, 
    {
      "op": "elemwise_add", 
      "name": "_plus15", 
      "inputs": [[441, 0, 0], [444, 0, 0]]
    }, 
    {
      "op": "Activation", 
      "name": "activation43", 
      "attrs": {"act_type": "tanh"}, 
      "inputs": [[445, 0, 0]]
    }, 
    {
      "op": "elemwise_mul", 
      "name": "_mul23", 
      "inputs": [[439, 0, 0], [446, 0, 0]]
    }, 
    {
      "op": "Concat", 
      "name": "concat12", 
      "attrs": {"num_args": "2"}, 
      "inputs": [[447, 0, 0], [237, 0, 0]]
    }, 
    {
      "op": "FullyConnected", 
      "name": "t7_l3_i2h", 
      "attrs": {"num_hidden": "400"}, 
      "inputs": [[448, 0, 0], [342, 0, 0], [343, 0, 0]]
    }, 
    {
      "op": "FullyConnected", 
      "name": "t8_l0_i2h", 
      "attrs": {"num_hidden": "400"}, 
      "inputs": [[36, 8, 0], [37, 0, 0], [38, 0, 0]]
    }, 
    {
      "op": "FullyConnected", 
      "name": "t8_l0_h2h", 
      "attrs": {"num_hidden": "400"}, 
      "inputs": [[447, 0, 0], [41, 0, 0], [42, 0, 0]]
    }, 
    {
      "op": "elemwise_add", 
      "name": "_plus16", 
      "inputs": [[450, 0, 0], [451, 0, 0]]
    }, 
    {
      "op": "SliceChannel", 
      "name": "t8_l0_slice", 
      "attrs": {"num_outputs": "4"}, 
      "inputs": [[452, 0, 0]]
    }, 
    {
      "op": "Activation", 
      "name": "activation47", 
      "attrs": {"act_type": "sigmoid"}, 
      "inputs": [[453, 3, 0]]
    }, 
    {
      "op": "Activation", 
      "name": "activation46", 
      "attrs": {"act_type": "sigmoid"}, 
      "inputs": [[453, 2, 0]]
    }, 
    {
      "op": "elemwise_mul", 
      "name": "_mul24", 
      "inputs": [[455, 0, 0], [445, 0, 0]]
    }, 
    {
      "op": "Activation", 
      "name": "activation44", 
      "attrs": {"act_type": "sigmoid"}, 
      "inputs": [[453, 0, 0]]
    }, 
    {
      "op": "Activation", 
      "name": "activation45", 
      "attrs": {"act_type": "tanh"}, 
      "inputs": [[453, 1, 0]]
    }, 
    {
      "op": "elemwise_mul", 
      "name": "_mul25", 
      "inputs": [[457, 0, 0], [458, 0, 0]]
    }, 
    {
      "op": "elemwise_add", 
      "name": "_plus17", 
      "inputs": [[456, 0, 0], [459, 0, 0]]
    }, 
    {
      "op": "Activation", 
      "name": "activation48", 
      "attrs": {"act_type": "tanh"}, 
      "inputs": [[460, 0, 0]]
    }, 
    {
      "op": "elemwise_mul", 
      "name": "_mul26", 
      "inputs": [[454, 0, 0], [461, 0, 0]]
    }, 
    {
      "op": "Concat", 
      "name": "concat11", 
      "attrs": {"num_args": "2"}, 
      "inputs": [[462, 0, 0], [225, 0, 0]]
    }, 
    {
      "op": "FullyConnected", 
      "name": "t8_l3_i2h", 
      "attrs": {"num_hidden": "400"}, 
      "inputs": [[463, 0, 0], [342, 0, 0], [343, 0, 0]]
    }, 
    {
      "op": "FullyConnected", 
      "name": "t9_l0_i2h", 
      "attrs": {"num_hidden": "400"}, 
      "inputs": [[36, 9, 0], [37, 0, 0], [38, 0, 0]]
    }, 
    {
      "op": "FullyConnected", 
      "name": "t9_l0_h2h", 
      "attrs": {"num_hidden": "400"}, 
      "inputs": [[462, 0, 0], [41, 0, 0], [42, 0, 0]]
    }, 
    {
      "op": "elemwise_add", 
      "name": "_plus18", 
      "inputs": [[465, 0, 0], [466, 0, 0]]
    }, 
    {
      "op": "SliceChannel", 
      "name": "t9_l0_slice", 
      "attrs": {"num_outputs": "4"}, 
      "inputs": [[467, 0, 0]]
    }, 
    {
      "op": "Activation", 
      "name": "activation52", 
      "attrs": {"act_type": "sigmoid"}, 
      "inputs": [[468, 3, 0]]
    }, 
    {
      "op": "Activation", 
      "name": "activation51", 
      "attrs": {"act_type": "sigmoid"}, 
      "inputs": [[468, 2, 0]]
    }, 
    {
      "op": "elemwise_mul", 
      "name": "_mul27", 
      "inputs": [[470, 0, 0], [460, 0, 0]]
    }, 
    {
      "op": "Activation", 
      "name": "activation49", 
      "attrs": {"act_type": "sigmoid"}, 
      "inputs": [[468, 0, 0]]
    }, 
    {
      "op": "Activation", 
      "name": "activation50", 
      "attrs": {"act_type": "tanh"}, 
      "inputs": [[468, 1, 0]]
    }, 
    {
      "op": "elemwise_mul", 
      "name": "_mul28", 
      "inputs": [[472, 0, 0], [473, 0, 0]]
    }, 
    {
      "op": "elemwise_add", 
      "name": "_plus19", 
      "inputs": [[471, 0, 0], [474, 0, 0]]
    }, 
    {
      "op": "Activation", 
      "name": "activation53", 
      "attrs": {"act_type": "tanh"}, 
      "inputs": [[475, 0, 0]]
    }, 
    {
      "op": "elemwise_mul", 
      "name": "_mul29", 
      "inputs": [[469, 0, 0], [476, 0, 0]]
    }, 
    {
      "op": "Concat", 
      "name": "concat10", 
      "attrs": {"num_args": "2"}, 
      "inputs": [[477, 0, 0], [213, 0, 0]]
    }, 
    {
      "op": "FullyConnected", 
      "name": "t9_l3_i2h", 
      "attrs": {"num_hidden": "400"}, 
      "inputs": [[478, 0, 0], [342, 0, 0], [343, 0, 0]]
    }, 
    {
      "op": "FullyConnected", 
      "name": "t10_l0_i2h", 
      "attrs": {"num_hidden": "400"}, 
      "inputs": [[36, 10, 0], [37, 0, 0], [38, 0, 0]]
    }, 
    {
      "op": "FullyConnected", 
      "name": "t10_l0_h2h", 
      "attrs": {"num_hidden": "400"}, 
      "inputs": [[477, 0, 0], [41, 0, 0], [42, 0, 0]]
    }, 
    {
      "op": "elemwise_add", 
      "name": "_plus20", 
      "inputs": [[480, 0, 0], [481, 0, 0]]
    }, 
    {
      "op": "SliceChannel", 
      "name": "t10_l0_slice", 
      "attrs": {"num_outputs": "4"}, 
      "inputs": [[482, 0, 0]]
    }, 
    {
      "op": "Activation", 
      "name": "activation57", 
      "attrs": {"act_type": "sigmoid"}, 
      "inputs": [[483, 3, 0]]
    }, 
    {
      "op": "Activation", 
      "name": "activation56", 
      "attrs": {"act_type": "sigmoid"}, 
      "inputs": [[483, 2, 0]]
    }, 
    {
      "op": "elemwise_mul", 
      "name": "_mul30", 
      "inputs": [[485, 0, 0], [475, 0, 0]]
    }, 
    {
      "op": "Activation", 
      "name": "activation54", 
      "attrs": {"act_type": "sigmoid"}, 
      "inputs": [[483, 0, 0]]
    }, 
    {
      "op": "Activation", 
      "name": "activation55", 
      "attrs": {"act_type": "tanh"}, 
      "inputs": [[483, 1, 0]]
    }, 
    {
      "op": "elemwise_mul", 
      "name": "_mul31", 
      "inputs": [[487, 0, 0], [488, 0, 0]]
    }, 
    {
      "op": "elemwise_add", 
      "name": "_plus21", 
      "inputs": [[486, 0, 0], [489, 0, 0]]
    }, 
    {
      "op": "Activation", 
      "name": "activation58", 
      "attrs": {"act_type": "tanh"}, 
      "inputs": [[490, 0, 0]]
    }, 
    {
      "op": "elemwise_mul", 
      "name": "_mul32", 
      "inputs": [[484, 0, 0], [491, 0, 0]]
    }, 
    {
      "op": "Concat", 
      "name": "concat9", 
      "attrs": {"num_args": "2"}, 
      "inputs": [[492, 0, 0], [201, 0, 0]]
    }, 
    {
      "op": "FullyConnected", 
      "name": "t10_l3_i2h", 
      "attrs": {"num_hidden": "400"}, 
      "inputs": [[493, 0, 0], [342, 0, 0], [343, 0, 0]]
    }, 
    {
      "op": "FullyConnected", 
      "name": "t11_l0_i2h", 
      "attrs": {"num_hidden": "400"}, 
      "inputs": [[36, 11, 0], [37, 0, 0], [38, 0, 0]]
    }, 
    {
      "op": "FullyConnected", 
      "name": "t11_l0_h2h", 
      "attrs": {"num_hidden": "400"}, 
      "inputs": [[492, 0, 0], [41, 0, 0], [42, 0, 0]]
    }, 
    {
      "op": "elemwise_add", 
      "name": "_plus22", 
      "inputs": [[495, 0, 0], [496, 0, 0]]
    }, 
    {
      "op": "SliceChannel", 
      "name": "t11_l0_slice", 
      "attrs": {"num_outputs": "4"}, 
      "inputs": [[497, 0, 0]]
    }, 
    {
      "op": "Activation", 
      "name": "activation62", 
      "attrs": {"act_type": "sigmoid"}, 
      "inputs": [[498, 3, 0]]
    }, 
    {
      "op": "Activation", 
      "name": "activation61", 
      "attrs": {"act_type": "sigmoid"}, 
      "inputs": [[498, 2, 0]]
    }, 
    {
      "op": "elemwise_mul", 
      "name": "_mul33", 
      "inputs": [[500, 0, 0], [490, 0, 0]]
    }, 
    {
      "op": "Activation", 
      "name": "activation59", 
      "attrs": {"act_type": "sigmoid"}, 
      "inputs": [[498, 0, 0]]
    }, 
    {
      "op": "Activation", 
      "name": "activation60", 
      "attrs": {"act_type": "tanh"}, 
      "inputs": [[498, 1, 0]]
    }, 
    {
      "op": "elemwise_mul", 
      "name": "_mul34", 
      "inputs": [[502, 0, 0], [503, 0, 0]]
    }, 
    {
      "op": "elemwise_add", 
      "name": "_plus23", 
      "inputs": [[501, 0, 0], [504, 0, 0]]
    }, 
    {
      "op": "Activation", 
      "name": "activation63", 
      "attrs": {"act_type": "tanh"}, 
      "inputs": [[505, 0, 0]]
    }, 
    {
      "op": "elemwise_mul", 
      "name": "_mul35", 
      "inputs": [[499, 0, 0], [506, 0, 0]]
    }, 
    {
      "op": "Concat", 
      "name": "concat8", 
      "attrs": {"num_args": "2"}, 
      "inputs": [[507, 0, 0], [189, 0, 0]]
    }, 
    {
      "op": "FullyConnected", 
      "name": "t11_l3_i2h", 
      "attrs": {"num_hidden": "400"}, 
      "inputs": [[508, 0, 0], [342, 0, 0], [343, 0, 0]]
    }, 
    {
      "op": "FullyConnected", 
      "name": "t12_l0_i2h", 
      "attrs": {"num_hidden": "400"}, 
      "inputs": [[36, 12, 0], [37, 0, 0], [38, 0, 0]]
    }, 
    {
      "op": "FullyConnected", 
      "name": "t12_l0_h2h", 
      "attrs": {"num_hidden": "400"}, 
      "inputs": [[507, 0, 0], [41, 0, 0], [42, 0, 0]]
    }, 
    {
      "op": "elemwise_add", 
      "name": "_plus24", 
      "inputs": [[510, 0, 0], [511, 0, 0]]
    }, 
    {
      "op": "SliceChannel", 
      "name": "t12_l0_slice", 
      "attrs": {"num_outputs": "4"}, 
      "inputs": [[512, 0, 0]]
    }, 
    {
      "op": "Activation", 
      "name": "activation67", 
      "attrs": {"act_type": "sigmoid"}, 
      "inputs": [[513, 3, 0]]
    }, 
    {
      "op": "Activation", 
      "name": "activation66", 
      "attrs": {"act_type": "sigmoid"}, 
      "inputs": [[513, 2, 0]]
    }, 
    {
      "op": "elemwise_mul", 
      "name": "_mul36", 
      "inputs": [[515, 0, 0], [505, 0, 0]]
    }, 
    {
      "op": "Activation", 
      "name": "activation64", 
      "attrs": {"act_type": "sigmoid"}, 
      "inputs": [[513, 0, 0]]
    }, 
    {
      "op": "Activation", 
      "name": "activation65", 
      "attrs": {"act_type": "tanh"}, 
      "inputs": [[513, 1, 0]]
    }, 
    {
      "op": "elemwise_mul", 
      "name": "_mul37", 
      "inputs": [[517, 0, 0], [518, 0, 0]]
    }, 
    {
      "op": "elemwise_add", 
      "name": "_plus25", 
      "inputs": [[516, 0, 0], [519, 0, 0]]
    }, 
    {
      "op": "Activation", 
      "name": "activation68", 
      "attrs": {"act_type": "tanh"}, 
      "inputs": [[520, 0, 0]]
    }, 
    {
      "op": "elemwise_mul", 
      "name": "_mul38", 
      "inputs": [[514, 0, 0], [521, 0, 0]]
    }, 
    {
      "op": "Concat", 
      "name": "concat7", 
      "attrs": {"num_args": "2"}, 
      "inputs": [[522, 0, 0], [177, 0, 0]]
    }, 
    {
      "op": "FullyConnected", 
      "name": "t12_l3_i2h", 
      "attrs": {"num_hidden": "400"}, 
      "inputs": [[523, 0, 0], [342, 0, 0], [343, 0, 0]]
    }, 
    {
      "op": "FullyConnected", 
      "name": "t13_l0_i2h", 
      "attrs": {"num_hidden": "400"}, 
      "inputs": [[36, 13, 0], [37, 0, 0], [38, 0, 0]]
    }, 
    {
      "op": "FullyConnected", 
      "name": "t13_l0_h2h", 
      "attrs": {"num_hidden": "400"}, 
      "inputs": [[522, 0, 0], [41, 0, 0], [42, 0, 0]]
    }, 
    {
      "op": "elemwise_add", 
      "name": "_plus26", 
      "inputs": [[525, 0, 0], [526, 0, 0]]
    }, 
    {
      "op": "SliceChannel", 
      "name": "t13_l0_slice", 
      "attrs": {"num_outputs": "4"}, 
      "inputs": [[527, 0, 0]]
    }, 
    {
      "op": "Activation", 
      "name": "activation72", 
      "attrs": {"act_type": "sigmoid"}, 
      "inputs": [[528, 3, 0]]
    }, 
    {
      "op": "Activation", 
      "name": "activation71", 
      "attrs": {"act_type": "sigmoid"}, 
      "inputs": [[528, 2, 0]]
    }, 
    {
      "op": "elemwise_mul", 
      "name": "_mul39", 
      "inputs": [[530, 0, 0], [520, 0, 0]]
    }, 
    {
      "op": "Activation", 
      "name": "activation69", 
      "attrs": {"act_type": "sigmoid"}, 
      "inputs": [[528, 0, 0]]
    }, 
    {
      "op": "Activation", 
      "name": "activation70", 
      "attrs": {"act_type": "tanh"}, 
      "inputs": [[528, 1, 0]]
    }, 
    {
      "op": "elemwise_mul", 
      "name": "_mul40", 
      "inputs": [[532, 0, 0], [533, 0, 0]]
    }, 
    {
      "op": "elemwise_add", 
      "name": "_plus27", 
      "inputs": [[531, 0, 0], [534, 0, 0]]
    }, 
    {
      "op": "Activation", 
      "name": "activation73", 
      "attrs": {"act_type": "tanh"}, 
      "inputs": [[535, 0, 0]]
    }, 
    {
      "op": "elemwise_mul", 
      "name": "_mul41", 
      "inputs": [[529, 0, 0], [536, 0, 0]]
    }, 
    {
      "op": "Concat", 
      "name": "concat6", 
      "attrs": {"num_args": "2"}, 
      "inputs": [[537, 0, 0], [165, 0, 0]]
    }, 
    {
      "op": "FullyConnected", 
      "name": "t13_l3_i2h", 
      "attrs": {"num_hidden": "400"}, 
      "inputs": [[538, 0, 0], [342, 0, 0], [343, 0, 0]]
    }, 
    {
      "op": "FullyConnected", 
      "name": "t14_l0_i2h", 
      "attrs": {"num_hidden": "400"}, 
      "inputs": [[36, 14, 0], [37, 0, 0], [38, 0, 0]]
    }, 
    {
      "op": "FullyConnected", 
      "name": "t14_l0_h2h", 
      "attrs": {"num_hidden": "400"}, 
      "inputs": [[537, 0, 0], [41, 0, 0], [42, 0, 0]]
    }, 
    {
      "op": "elemwise_add", 
      "name": "_plus28", 
      "inputs": [[540, 0, 0], [541, 0, 0]]
    }, 
    {
      "op": "SliceChannel", 
      "name": "t14_l0_slice", 
      "attrs": {"num_outputs": "4"}, 
      "inputs": [[542, 0, 0]]
    }, 
    {
      "op": "Activation", 
      "name": "activation77", 
      "attrs": {"act_type": "sigmoid"}, 
      "inputs": [[543, 3, 0]]
    }, 
    {
      "op": "Activation", 
      "name": "activation76", 
      "attrs": {"act_type": "sigmoid"}, 
      "inputs": [[543, 2, 0]]
    }, 
    {
      "op": "elemwise_mul", 
      "name": "_mul42", 
      "inputs": [[545, 0, 0], [535, 0, 0]]
    }, 
    {
      "op": "Activation", 
      "name": "activation74", 
      "attrs": {"act_type": "sigmoid"}, 
      "inputs": [[543, 0, 0]]
    }, 
    {
      "op": "Activation", 
      "name": "activation75", 
      "attrs": {"act_type": "tanh"}, 
      "inputs": [[543, 1, 0]]
    }, 
    {
      "op": "elemwise_mul", 
      "name": "_mul43", 
      "inputs": [[547, 0, 0], [548, 0, 0]]
    }, 
    {
      "op": "elemwise_add", 
      "name": "_plus29", 
      "inputs": [[546, 0, 0], [549, 0, 0]]
    }, 
    {
      "op": "Activation", 
      "name": "activation78", 
      "attrs": {"act_type": "tanh"}, 
      "inputs": [[550, 0, 0]]
    }, 
    {
      "op": "elemwise_mul", 
      "name": "_mul44", 
      "inputs": [[544, 0, 0], [551, 0, 0]]
    }, 
    {
      "op": "Concat", 
      "name": "concat5", 
      "attrs": {"num_args": "2"}, 
      "inputs": [[552, 0, 0], [153, 0, 0]]
    }, 
    {
      "op": "FullyConnected", 
      "name": "t14_l3_i2h", 
      "attrs": {"num_hidden": "400"}, 
      "inputs": [[553, 0, 0], [342, 0, 0], [343, 0, 0]]
    }, 
    {
      "op": "FullyConnected", 
      "name": "t15_l0_i2h", 
      "attrs": {"num_hidden": "400"}, 
      "inputs": [[36, 15, 0], [37, 0, 0], [38, 0, 0]]
    }, 
    {
      "op": "FullyConnected", 
      "name": "t15_l0_h2h", 
      "attrs": {"num_hidden": "400"}, 
      "inputs": [[552, 0, 0], [41, 0, 0], [42, 0, 0]]
    }, 
    {
      "op": "elemwise_add", 
      "name": "_plus30", 
      "inputs": [[555, 0, 0], [556, 0, 0]]
    }, 
    {
      "op": "SliceChannel", 
      "name": "t15_l0_slice", 
      "attrs": {"num_outputs": "4"}, 
      "inputs": [[557, 0, 0]]
    }, 
    {
      "op": "Activation", 
      "name": "activation82", 
      "attrs": {"act_type": "sigmoid"}, 
      "inputs": [[558, 3, 0]]
    }, 
    {
      "op": "Activation", 
      "name": "activation81", 
      "attrs": {"act_type": "sigmoid"}, 
      "inputs": [[558, 2, 0]]
    }, 
    {
      "op": "elemwise_mul", 
      "name": "_mul45", 
      "inputs": [[560, 0, 0], [550, 0, 0]]
    }, 
    {
      "op": "Activation", 
      "name": "activation79", 
      "attrs": {"act_type": "sigmoid"}, 
      "inputs": [[558, 0, 0]]
    }, 
    {
      "op": "Activation", 
      "name": "activation80", 
      "attrs": {"act_type": "tanh"}, 
      "inputs": [[558, 1, 0]]
    }, 
    {
      "op": "elemwise_mul", 
      "name": "_mul46", 
      "inputs": [[562, 0, 0], [563, 0, 0]]
    }, 
    {
      "op": "elemwise_add", 
      "name": "_plus31", 
      "inputs": [[561, 0, 0], [564, 0, 0]]
    }, 
    {
      "op": "Activation", 
      "name": "activation83", 
      "attrs": {"act_type": "tanh"}, 
      "inputs": [[565, 0, 0]]
    }, 
    {
      "op": "elemwise_mul", 
      "name": "_mul47", 
      "inputs": [[559, 0, 0], [566, 0, 0]]
    }, 
    {
      "op": "Concat", 
      "name": "concat4", 
      "attrs": {"num_args": "2"}, 
      "inputs": [[567, 0, 0], [141, 0, 0]]
    }, 
    {
      "op": "FullyConnected", 
      "name": "t15_l3_i2h", 
      "attrs": {"num_hidden": "400"}, 
      "inputs": [[568, 0, 0], [342, 0, 0], [343, 0, 0]]
    }, 
    {
      "op": "FullyConnected", 
      "name": "t16_l0_i2h", 
      "attrs": {"num_hidden": "400"}, 
      "inputs": [[36, 16, 0], [37, 0, 0], [38, 0, 0]]
    }, 
    {
      "op": "FullyConnected", 
      "name": "t16_l0_h2h", 
      "attrs": {"num_hidden": "400"}, 
      "inputs": [[567, 0, 0], [41, 0, 0], [42, 0, 0]]
    }, 
    {
      "op": "elemwise_add", 
      "name": "_plus32", 
      "inputs": [[570, 0, 0], [571, 0, 0]]
    }, 
    {
      "op": "SliceChannel", 
      "name": "t16_l0_slice", 
      "attrs": {"num_outputs": "4"}, 
      "inputs": [[572, 0, 0]]
    }, 
    {
      "op": "Activation", 
      "name": "activation87", 
      "attrs": {"act_type": "sigmoid"}, 
      "inputs": [[573, 3, 0]]
    }, 
    {
      "op": "Activation", 
      "name": "activation86", 
      "attrs": {"act_type": "sigmoid"}, 
      "inputs": [[573, 2, 0]]
    }, 
    {
      "op": "elemwise_mul", 
      "name": "_mul48", 
      "inputs": [[575, 0, 0], [565, 0, 0]]
    }, 
    {
      "op": "Activation", 
      "name": "activation84", 
      "attrs": {"act_type": "sigmoid"}, 
      "inputs": [[573, 0, 0]]
    }, 
    {
      "op": "Activation", 
      "name": "activation85", 
      "attrs": {"act_type": "tanh"}, 
      "inputs": [[573, 1, 0]]
    }, 
    {
      "op": "elemwise_mul", 
      "name": "_mul49", 
      "inputs": [[577, 0, 0], [578, 0, 0]]
    }, 
    {
      "op": "elemwise_add", 
      "name": "_plus33", 
      "inputs": [[576, 0, 0], [579, 0, 0]]
    }, 
    {
      "op": "Activation", 
      "name": "activation88", 
      "attrs": {"act_type": "tanh"}, 
      "inputs": [[580, 0, 0]]
    }, 
    {
      "op": "elemwise_mul", 
      "name": "_mul50", 
      "inputs": [[574, 0, 0], [581, 0, 0]]
    }, 
    {
      "op": "Concat", 
      "name": "concat3", 
      "attrs": {"num_args": "2"}, 
      "inputs": [[582, 0, 0], [129, 0, 0]]
    }, 
    {
      "op": "FullyConnected", 
      "name": "t16_l3_i2h", 
      "attrs": {"num_hidden": "400"}, 
      "inputs": [[583, 0, 0], [342, 0, 0], [343, 0, 0]]
    }, 
    {
      "op": "FullyConnected", 
      "name": "t17_l0_i2h", 
      "attrs": {"num_hidden": "400"}, 
      "inputs": [[36, 17, 0], [37, 0, 0], [38, 0, 0]]
    }, 
    {
      "op": "FullyConnected", 
      "name": "t17_l0_h2h", 
      "attrs": {"num_hidden": "400"}, 
      "inputs": [[582, 0, 0], [41, 0, 0], [42, 0, 0]]
    }, 
    {
      "op": "elemwise_add", 
      "name": "_plus34", 
      "inputs": [[585, 0, 0], [586, 0, 0]]
    }, 
    {
      "op": "SliceChannel", 
      "name": "t17_l0_slice", 
      "attrs": {"num_outputs": "4"}, 
      "inputs": [[587, 0, 0]]
    }, 
    {
      "op": "Activation", 
      "name": "activation92", 
      "attrs": {"act_type": "sigmoid"}, 
      "inputs": [[588, 3, 0]]
    }, 
    {
      "op": "Activation", 
      "name": "activation91", 
      "attrs": {"act_type": "sigmoid"}, 
      "inputs": [[588, 2, 0]]
    }, 
    {
      "op": "elemwise_mul", 
      "name": "_mul51", 
      "inputs": [[590, 0, 0], [580, 0, 0]]
    }, 
    {
      "op": "Activation", 
      "name": "activation89", 
      "attrs": {"act_type": "sigmoid"}, 
      "inputs": [[588, 0, 0]]
    }, 
    {
      "op": "Activation", 
      "name": "activation90", 
      "attrs": {"act_type": "tanh"}, 
      "inputs": [[588, 1, 0]]
    }, 
    {
      "op": "elemwise_mul", 
      "name": "_mul52", 
      "inputs": [[592, 0, 0], [593, 0, 0]]
    }, 
    {
      "op": "elemwise_add", 
      "name": "_plus35", 
      "inputs": [[591, 0, 0], [594, 0, 0]]
    }, 
    {
      "op": "Activation", 
      "name": "activation93", 
      "attrs": {"act_type": "tanh"}, 
      "inputs": [[595, 0, 0]]
    }, 
    {
      "op": "elemwise_mul", 
      "name": "_mul53", 
      "inputs": [[589, 0, 0], [596, 0, 0]]
    }, 
    {
      "op": "Concat", 
      "name": "concat2", 
      "attrs": {"num_args": "2"}, 
      "inputs": [[597, 0, 0], [117, 0, 0]]
    }, 
    {
      "op": "FullyConnected", 
      "name": "t17_l3_i2h", 
      "attrs": {"num_hidden": "400"}, 
      "inputs": [[598, 0, 0], [342, 0, 0], [343, 0, 0]]
    }, 
    {
      "op": "FullyConnected", 
      "name": "t18_l0_i2h", 
      "attrs": {"num_hidden": "400"}, 
      "inputs": [[36, 18, 0], [37, 0, 0], [38, 0, 0]]
    }, 
    {
      "op": "FullyConnected", 
      "name": "t18_l0_h2h", 
      "attrs": {"num_hidden": "400"}, 
      "inputs": [[597, 0, 0], [41, 0, 0], [42, 0, 0]]
    }, 
    {
      "op": "elemwise_add", 
      "name": "_plus36", 
      "inputs": [[600, 0, 0], [601, 0, 0]]
    }, 
    {
      "op": "SliceChannel", 
      "name": "t18_l0_slice", 
      "attrs": {"num_outputs": "4"}, 
      "inputs": [[602, 0, 0]]
    }, 
    {
      "op": "Activation", 
      "name": "activation97", 
      "attrs": {"act_type": "sigmoid"}, 
      "inputs": [[603, 3, 0]]
    }, 
    {
      "op": "Activation", 
      "name": "activation96", 
      "attrs": {"act_type": "sigmoid"}, 
      "inputs": [[603, 2, 0]]
    }, 
    {
      "op": "elemwise_mul", 
      "name": "_mul54", 
      "inputs": [[605, 0, 0], [595, 0, 0]]
    }, 
    {
      "op": "Activation", 
      "name": "activation94", 
      "attrs": {"act_type": "sigmoid"}, 
      "inputs": [[603, 0, 0]]
    }, 
    {
      "op": "Activation", 
      "name": "activation95", 
      "attrs": {"act_type": "tanh"}, 
      "inputs": [[603, 1, 0]]
    }, 
    {
      "op": "elemwise_mul", 
      "name": "_mul55", 
      "inputs": [[607, 0, 0], [608, 0, 0]]
    }, 
    {
      "op": "elemwise_add", 
      "name": "_plus37", 
      "inputs": [[606, 0, 0], [609, 0, 0]]
    }, 
    {
      "op": "Activation", 
      "name": "activation98", 
      "attrs": {"act_type": "tanh"}, 
      "inputs": [[610, 0, 0]]
    }, 
    {
      "op": "elemwise_mul", 
      "name": "_mul56", 
      "inputs": [[604, 0, 0], [611, 0, 0]]
    }, 
    {
      "op": "Concat", 
      "name": "concat1", 
      "attrs": {"num_args": "2"}, 
      "inputs": [[612, 0, 0], [105, 0, 0]]
    }, 
    {
      "op": "FullyConnected", 
      "name": "t18_l3_i2h", 
      "attrs": {"num_hidden": "400"}, 
      "inputs": [[613, 0, 0], [342, 0, 0], [343, 0, 0]]
    }, 
    {
      "op": "FullyConnected", 
      "name": "t19_l0_i2h", 
      "attrs": {"num_hidden": "400"}, 
      "inputs": [[36, 19, 0], [37, 0, 0], [38, 0, 0]]
    }, 
    {
      "op": "FullyConnected", 
      "name": "t19_l0_h2h", 
      "attrs": {"num_hidden": "400"}, 
      "inputs": [[612, 0, 0], [41, 0, 0], [42, 0, 0]]
    }, 
    {
      "op": "elemwise_add", 
      "name": "_plus38", 
      "inputs": [[615, 0, 0], [616, 0, 0]]
    }, 
    {
      "op": "SliceChannel", 
      "name": "t19_l0_slice", 
      "attrs": {"num_outputs": "4"}, 
      "inputs": [[617, 0, 0]]
    }, 
    {
      "op": "Activation", 
      "name": "activation102", 
      "attrs": {"act_type": "sigmoid"}, 
      "inputs": [[618, 3, 0]]
    }, 
    {
      "op": "Activation", 
      "name": "activation101", 
      "attrs": {"act_type": "sigmoid"}, 
      "inputs": [[618, 2, 0]]
    }, 
    {
      "op": "elemwise_mul", 
      "name": "_mul57", 
      "inputs": [[620, 0, 0], [610, 0, 0]]
    }, 
    {
      "op": "Activation", 
      "name": "activation99", 
      "attrs": {"act_type": "sigmoid"}, 
      "inputs": [[618, 0, 0]]
    }, 
    {
      "op": "Activation", 
      "name": "activation100", 
      "attrs": {"act_type": "tanh"}, 
      "inputs": [[618, 1, 0]]
    }, 
    {
      "op": "elemwise_mul", 
      "name": "_mul58", 
      "inputs": [[622, 0, 0], [623, 0, 0]]
    }, 
    {
      "op": "elemwise_add", 
      "name": "_plus39", 
      "inputs": [[621, 0, 0], [624, 0, 0]]
    }, 
    {
      "op": "Activation", 
      "name": "activation103", 
      "attrs": {"act_type": "tanh"}, 
      "inputs": [[625, 0, 0]]
    }, 
    {
      "op": "elemwise_mul", 
      "name": "_mul59", 
      "inputs": [[619, 0, 0], [626, 0, 0]]
    }, 
    {
      "op": "Concat", 
      "name": "concat0", 
      "attrs": {"num_args": "2"}, 
      "inputs": [[627, 0, 0], [93, 0, 0]]
    }, 
    {
      "op": "FullyConnected", 
      "name": "t19_l3_i2h", 
      "attrs": {"num_hidden": "400"}, 
      "inputs": [[628, 0, 0], [342, 0, 0], [343, 0, 0]]
    }, 
    {
      "op": "null", 
      "name": "l3_init_h", 
      "inputs": []
    }, 
    {
      "op": "null", 
      "name": "l3_h2h_weight", 
      "inputs": []
    }, 
    {
      "op": "null", 
      "name": "l3_h2h_bias", 
      "inputs": []
    }, 
    {
      "op": "FullyConnected", 
      "name": "t19_l3_h2h", 
      "attrs": {"num_hidden": "400"}, 
      "inputs": [[630, 0, 0], [631, 0, 0], [632, 0, 0]]
    }, 
    {
      "op": "elemwise_add", 
      "name": "_plus120", 
      "inputs": [[629, 0, 0], [633, 0, 0]]
    }, 
    {
      "op": "SliceChannel", 
      "name": "t19_l3_slice", 
      "attrs": {"num_outputs": "4"}, 
      "inputs": [[634, 0, 0]]
    }, 
    {
      "op": "Activation", 
      "name": "activation307", 
      "attrs": {"act_type": "sigmoid"}, 
      "inputs": [[635, 3, 0]]
    }, 
    {
      "op": "Activation", 
      "name": "activation306", 
      "attrs": {"act_type": "sigmoid"}, 
      "inputs": [[635, 2, 0]]
    }, 
    {
      "op": "null", 
      "name": "l3_init_c", 
      "inputs": []
    }, 
    {
      "op": "elemwise_mul", 
      "name": "_mul180", 
      "inputs": [[637, 0, 0], [638, 0, 0]]
    }, 
    {
      "op": "Activation", 
      "name": "activation304", 
      "attrs": {"act_type": "sigmoid"}, 
      "inputs": [[635, 0, 0]]
    }, 
    {
      "op": "Activation", 
      "name": "activation305", 
      "attrs": {"act_type": "tanh"}, 
      "inputs": [[635, 1, 0]]
    }, 
    {
      "op": "elemwise_mul", 
      "name": "_mul181", 
      "inputs": [[640, 0, 0], [641, 0, 0]]
    }, 
    {
      "op": "elemwise_add", 
      "name": "_plus121", 
      "inputs": [[639, 0, 0], [642, 0, 0]]
    }, 
    {
      "op": "Activation", 
      "name": "activation308", 
      "attrs": {"act_type": "tanh"}, 
      "inputs": [[643, 0, 0]]
    }, 
    {
      "op": "elemwise_mul", 
      "name": "_mul182", 
      "inputs": [[636, 0, 0], [644, 0, 0]]
    }, 
    {
      "op": "FullyConnected", 
      "name": "t18_l3_h2h", 
      "attrs": {"num_hidden": "400"}, 
      "inputs": [[645, 0, 0], [631, 0, 0], [632, 0, 0]]
    }, 
    {
      "op": "elemwise_add", 
      "name": "_plus122", 
      "inputs": [[614, 0, 0], [646, 0, 0]]
    }, 
    {
      "op": "SliceChannel", 
      "name": "t18_l3_slice", 
      "attrs": {"num_outputs": "4"}, 
      "inputs": [[647, 0, 0]]
    }, 
    {
      "op": "Activation", 
      "name": "activation312", 
      "attrs": {"act_type": "sigmoid"}, 
      "inputs": [[648, 3, 0]]
    }, 
    {
      "op": "Activation", 
      "name": "activation311", 
      "attrs": {"act_type": "sigmoid"}, 
      "inputs": [[648, 2, 0]]
    }, 
    {
      "op": "elemwise_mul", 
      "name": "_mul183", 
      "inputs": [[650, 0, 0], [643, 0, 0]]
    }, 
    {
      "op": "Activation", 
      "name": "activation309", 
      "attrs": {"act_type": "sigmoid"}, 
      "inputs": [[648, 0, 0]]
    }, 
    {
      "op": "Activation", 
      "name": "activation310", 
      "attrs": {"act_type": "tanh"}, 
      "inputs": [[648, 1, 0]]
    }, 
    {
      "op": "elemwise_mul", 
      "name": "_mul184", 
      "inputs": [[652, 0, 0], [653, 0, 0]]
    }, 
    {
      "op": "elemwise_add", 
      "name": "_plus123", 
      "inputs": [[651, 0, 0], [654, 0, 0]]
    }, 
    {
      "op": "Activation", 
      "name": "activation313", 
      "attrs": {"act_type": "tanh"}, 
      "inputs": [[655, 0, 0]]
    }, 
    {
      "op": "elemwise_mul", 
      "name": "_mul185", 
      "inputs": [[649, 0, 0], [656, 0, 0]]
    }, 
    {
      "op": "FullyConnected", 
      "name": "t17_l3_h2h", 
      "attrs": {"num_hidden": "400"}, 
      "inputs": [[657, 0, 0], [631, 0, 0], [632, 0, 0]]
    }, 
    {
      "op": "elemwise_add", 
      "name": "_plus124", 
      "inputs": [[599, 0, 0], [658, 0, 0]]
    }, 
    {
      "op": "SliceChannel", 
      "name": "t17_l3_slice", 
      "attrs": {"num_outputs": "4"}, 
      "inputs": [[659, 0, 0]]
    }, 
    {
      "op": "Activation", 
      "name": "activation317", 
      "attrs": {"act_type": "sigmoid"}, 
      "inputs": [[660, 3, 0]]
    }, 
    {
      "op": "Activation", 
      "name": "activation316", 
      "attrs": {"act_type": "sigmoid"}, 
      "inputs": [[660, 2, 0]]
    }, 
    {
      "op": "elemwise_mul", 
      "name": "_mul186", 
      "inputs": [[662, 0, 0], [655, 0, 0]]
    }, 
    {
      "op": "Activation", 
      "name": "activation314", 
      "attrs": {"act_type": "sigmoid"}, 
      "inputs": [[660, 0, 0]]
    }, 
    {
      "op": "Activation", 
      "name": "activation315", 
      "attrs": {"act_type": "tanh"}, 
      "inputs": [[660, 1, 0]]
    }, 
    {
      "op": "elemwise_mul", 
      "name": "_mul187", 
      "inputs": [[664, 0, 0], [665, 0, 0]]
    }, 
    {
      "op": "elemwise_add", 
      "name": "_plus125", 
      "inputs": [[663, 0, 0], [666, 0, 0]]
    }, 
    {
      "op": "Activation", 
      "name": "activation318", 
      "attrs": {"act_type": "tanh"}, 
      "inputs": [[667, 0, 0]]
    }, 
    {
      "op": "elemwise_mul", 
      "name": "_mul188", 
      "inputs": [[661, 0, 0], [668, 0, 0]]
    }, 
    {
      "op": "FullyConnected", 
      "name": "t16_l3_h2h", 
      "attrs": {"num_hidden": "400"}, 
      "inputs": [[669, 0, 0], [631, 0, 0], [632, 0, 0]]
    }, 
    {
      "op": "elemwise_add", 
      "name": "_plus126", 
      "inputs": [[584, 0, 0], [670, 0, 0]]
    }, 
    {
      "op": "SliceChannel", 
      "name": "t16_l3_slice", 
      "attrs": {"num_outputs": "4"}, 
      "inputs": [[671, 0, 0]]
    }, 
    {
      "op": "Activation", 
      "name": "activation322", 
      "attrs": {"act_type": "sigmoid"}, 
      "inputs": [[672, 3, 0]]
    }, 
    {
      "op": "Activation", 
      "name": "activation321", 
      "attrs": {"act_type": "sigmoid"}, 
      "inputs": [[672, 2, 0]]
    }, 
    {
      "op": "elemwise_mul", 
      "name": "_mul189", 
      "inputs": [[674, 0, 0], [667, 0, 0]]
    }, 
    {
      "op": "Activation", 
      "name": "activation319", 
      "attrs": {"act_type": "sigmoid"}, 
      "inputs": [[672, 0, 0]]
    }, 
    {
      "op": "Activation", 
      "name": "activation320", 
      "attrs": {"act_type": "tanh"}, 
      "inputs": [[672, 1, 0]]
    }, 
    {
      "op": "elemwise_mul", 
      "name": "_mul190", 
      "inputs": [[676, 0, 0], [677, 0, 0]]
    }, 
    {
      "op": "elemwise_add", 
      "name": "_plus127", 
      "inputs": [[675, 0, 0], [678, 0, 0]]
    }, 
    {
      "op": "Activation", 
      "name": "activation323", 
      "attrs": {"act_type": "tanh"}, 
      "inputs": [[679, 0, 0]]
    }, 
    {
      "op": "elemwise_mul", 
      "name": "_mul191", 
      "inputs": [[673, 0, 0], [680, 0, 0]]
    }, 
    {
      "op": "FullyConnected", 
      "name": "t15_l3_h2h", 
      "attrs": {"num_hidden": "400"}, 
      "inputs": [[681, 0, 0], [631, 0, 0], [632, 0, 0]]
    }, 
    {
      "op": "elemwise_add", 
      "name": "_plus128", 
      "inputs": [[569, 0, 0], [682, 0, 0]]
    }, 
    {
      "op": "SliceChannel", 
      "name": "t15_l3_slice", 
      "attrs": {"num_outputs": "4"}, 
      "inputs": [[683, 0, 0]]
    }, 
    {
      "op": "Activation", 
      "name": "activation327", 
      "attrs": {"act_type": "sigmoid"}, 
      "inputs": [[684, 3, 0]]
    }, 
    {
      "op": "Activation", 
      "name": "activation326", 
      "attrs": {"act_type": "sigmoid"}, 
      "inputs": [[684, 2, 0]]
    }, 
    {
      "op": "elemwise_mul", 
      "name": "_mul192", 
      "inputs": [[686, 0, 0], [679, 0, 0]]
    }, 
    {
      "op": "Activation", 
      "name": "activation324", 
      "attrs": {"act_type": "sigmoid"}, 
      "inputs": [[684, 0, 0]]
    }, 
    {
      "op": "Activation", 
      "name": "activation325", 
      "attrs": {"act_type": "tanh"}, 
      "inputs": [[684, 1, 0]]
    }, 
    {
      "op": "elemwise_mul", 
      "name": "_mul193", 
      "inputs": [[688, 0, 0], [689, 0, 0]]
    }, 
    {
      "op": "elemwise_add", 
      "name": "_plus129", 
      "inputs": [[687, 0, 0], [690, 0, 0]]
    }, 
    {
      "op": "Activation", 
      "name": "activation328", 
      "attrs": {"act_type": "tanh"}, 
      "inputs": [[691, 0, 0]]
    }, 
    {
      "op": "elemwise_mul", 
      "name": "_mul194", 
      "inputs": [[685, 0, 0], [692, 0, 0]]
    }, 
    {
      "op": "FullyConnected", 
      "name": "t14_l3_h2h", 
      "attrs": {"num_hidden": "400"}, 
      "inputs": [[693, 0, 0], [631, 0, 0], [632, 0, 0]]
    }, 
    {
      "op": "elemwise_add", 
      "name": "_plus130", 
      "inputs": [[554, 0, 0], [694, 0, 0]]
    }, 
    {
      "op": "SliceChannel", 
      "name": "t14_l3_slice", 
      "attrs": {"num_outputs": "4"}, 
      "inputs": [[695, 0, 0]]
    }, 
    {
      "op": "Activation", 
      "name": "activation332", 
      "attrs": {"act_type": "sigmoid"}, 
      "inputs": [[696, 3, 0]]
    }, 
    {
      "op": "Activation", 
      "name": "activation331", 
      "attrs": {"act_type": "sigmoid"}, 
      "inputs": [[696, 2, 0]]
    }, 
    {
      "op": "elemwise_mul", 
      "name": "_mul195", 
      "inputs": [[698, 0, 0], [691, 0, 0]]
    }, 
    {
      "op": "Activation", 
      "name": "activation329", 
      "attrs": {"act_type": "sigmoid"}, 
      "inputs": [[696, 0, 0]]
    }, 
    {
      "op": "Activation", 
      "name": "activation330", 
      "attrs": {"act_type": "tanh"}, 
      "inputs": [[696, 1, 0]]
    }, 
    {
      "op": "elemwise_mul", 
      "name": "_mul196", 
      "inputs": [[700, 0, 0], [701, 0, 0]]
    }, 
    {
      "op": "elemwise_add", 
      "name": "_plus131", 
      "inputs": [[699, 0, 0], [702, 0, 0]]
    }, 
    {
      "op": "Activation", 
      "name": "activation333", 
      "attrs": {"act_type": "tanh"}, 
      "inputs": [[703, 0, 0]]
    }, 
    {
      "op": "elemwise_mul", 
      "name": "_mul197", 
      "inputs": [[697, 0, 0], [704, 0, 0]]
    }, 
    {
      "op": "FullyConnected", 
      "name": "t13_l3_h2h", 
      "attrs": {"num_hidden": "400"}, 
      "inputs": [[705, 0, 0], [631, 0, 0], [632, 0, 0]]
    }, 
    {
      "op": "elemwise_add", 
      "name": "_plus132", 
      "inputs": [[539, 0, 0], [706, 0, 0]]
    }, 
    {
      "op": "SliceChannel", 
      "name": "t13_l3_slice", 
      "attrs": {"num_outputs": "4"}, 
      "inputs": [[707, 0, 0]]
    }, 
    {
      "op": "Activation", 
      "name": "activation337", 
      "attrs": {"act_type": "sigmoid"}, 
      "inputs": [[708, 3, 0]]
    }, 
    {
      "op": "Activation", 
      "name": "activation336", 
      "attrs": {"act_type": "sigmoid"}, 
      "inputs": [[708, 2, 0]]
    }, 
    {
      "op": "elemwise_mul", 
      "name": "_mul198", 
      "inputs": [[710, 0, 0], [703, 0, 0]]
    }, 
    {
      "op": "Activation", 
      "name": "activation334", 
      "attrs": {"act_type": "sigmoid"}, 
      "inputs": [[708, 0, 0]]
    }, 
    {
      "op": "Activation", 
      "name": "activation335", 
      "attrs": {"act_type": "tanh"}, 
      "inputs": [[708, 1, 0]]
    }, 
    {
      "op": "elemwise_mul", 
      "name": "_mul199", 
      "inputs": [[712, 0, 0], [713, 0, 0]]
    }, 
    {
      "op": "elemwise_add", 
      "name": "_plus133", 
      "inputs": [[711, 0, 0], [714, 0, 0]]
    }, 
    {
      "op": "Activation", 
      "name": "activation338", 
      "attrs": {"act_type": "tanh"}, 
      "inputs": [[715, 0, 0]]
    }, 
    {
      "op": "elemwise_mul", 
      "name": "_mul200", 
      "inputs": [[709, 0, 0], [716, 0, 0]]
    }, 
    {
      "op": "FullyConnected", 
      "name": "t12_l3_h2h", 
      "attrs": {"num_hidden": "400"}, 
      "inputs": [[717, 0, 0], [631, 0, 0], [632, 0, 0]]
    }, 
    {
      "op": "elemwise_add", 
      "name": "_plus134", 
      "inputs": [[524, 0, 0], [718, 0, 0]]
    }, 
    {
      "op": "SliceChannel", 
      "name": "t12_l3_slice", 
      "attrs": {"num_outputs": "4"}, 
      "inputs": [[719, 0, 0]]
    }, 
    {
      "op": "Activation", 
      "name": "activation342", 
      "attrs": {"act_type": "sigmoid"}, 
      "inputs": [[720, 3, 0]]
    }, 
    {
      "op": "Activation", 
      "name": "activation341", 
      "attrs": {"act_type": "sigmoid"}, 
      "inputs": [[720, 2, 0]]
    }, 
    {
      "op": "elemwise_mul", 
      "name": "_mul201", 
      "inputs": [[722, 0, 0], [715, 0, 0]]
    }, 
    {
      "op": "Activation", 
      "name": "activation339", 
      "attrs": {"act_type": "sigmoid"}, 
      "inputs": [[720, 0, 0]]
    }, 
    {
      "op": "Activation", 
      "name": "activation340", 
      "attrs": {"act_type": "tanh"}, 
      "inputs": [[720, 1, 0]]
    }, 
    {
      "op": "elemwise_mul", 
      "name": "_mul202", 
      "inputs": [[724, 0, 0], [725, 0, 0]]
    }, 
    {
      "op": "elemwise_add", 
      "name": "_plus135", 
      "inputs": [[723, 0, 0], [726, 0, 0]]
    }, 
    {
      "op": "Activation", 
      "name": "activation343", 
      "attrs": {"act_type": "tanh"}, 
      "inputs": [[727, 0, 0]]
    }, 
    {
      "op": "elemwise_mul", 
      "name": "_mul203", 
      "inputs": [[721, 0, 0], [728, 0, 0]]
    }, 
    {
      "op": "FullyConnected", 
      "name": "t11_l3_h2h", 
      "attrs": {"num_hidden": "400"}, 
      "inputs": [[729, 0, 0], [631, 0, 0], [632, 0, 0]]
    }, 
    {
      "op": "elemwise_add", 
      "name": "_plus136", 
      "inputs": [[509, 0, 0], [730, 0, 0]]
    }, 
    {
      "op": "SliceChannel", 
      "name": "t11_l3_slice", 
      "attrs": {"num_outputs": "4"}, 
      "inputs": [[731, 0, 0]]
    }, 
    {
      "op": "Activation", 
      "name": "activation347", 
      "attrs": {"act_type": "sigmoid"}, 
      "inputs": [[732, 3, 0]]
    }, 
    {
      "op": "Activation", 
      "name": "activation346", 
      "attrs": {"act_type": "sigmoid"}, 
      "inputs": [[732, 2, 0]]
    }, 
    {
      "op": "elemwise_mul", 
      "name": "_mul204", 
      "inputs": [[734, 0, 0], [727, 0, 0]]
    }, 
    {
      "op": "Activation", 
      "name": "activation344", 
      "attrs": {"act_type": "sigmoid"}, 
      "inputs": [[732, 0, 0]]
    }, 
    {
      "op": "Activation", 
      "name": "activation345", 
      "attrs": {"act_type": "tanh"}, 
      "inputs": [[732, 1, 0]]
    }, 
    {
      "op": "elemwise_mul", 
      "name": "_mul205", 
      "inputs": [[736, 0, 0], [737, 0, 0]]
    }, 
    {
      "op": "elemwise_add", 
      "name": "_plus137", 
      "inputs": [[735, 0, 0], [738, 0, 0]]
    }, 
    {
      "op": "Activation", 
      "name": "activation348", 
      "attrs": {"act_type": "tanh"}, 
      "inputs": [[739, 0, 0]]
    }, 
    {
      "op": "elemwise_mul", 
      "name": "_mul206", 
      "inputs": [[733, 0, 0], [740, 0, 0]]
    }, 
    {
      "op": "FullyConnected", 
      "name": "t10_l3_h2h", 
      "attrs": {"num_hidden": "400"}, 
      "inputs": [[741, 0, 0], [631, 0, 0], [632, 0, 0]]
    }, 
    {
      "op": "elemwise_add", 
      "name": "_plus138", 
      "inputs": [[494, 0, 0], [742, 0, 0]]
    }, 
    {
      "op": "SliceChannel", 
      "name": "t10_l3_slice", 
      "attrs": {"num_outputs": "4"}, 
      "inputs": [[743, 0, 0]]
    }, 
    {
      "op": "Activation", 
      "name": "activation352", 
      "attrs": {"act_type": "sigmoid"}, 
      "inputs": [[744, 3, 0]]
    }, 
    {
      "op": "Activation", 
      "name": "activation351", 
      "attrs": {"act_type": "sigmoid"}, 
      "inputs": [[744, 2, 0]]
    }, 
    {
      "op": "elemwise_mul", 
      "name": "_mul207", 
      "inputs": [[746, 0, 0], [739, 0, 0]]
    }, 
    {
      "op": "Activation", 
      "name": "activation349", 
      "attrs": {"act_type": "sigmoid"}, 
      "inputs": [[744, 0, 0]]
    }, 
    {
      "op": "Activation", 
      "name": "activation350", 
      "attrs": {"act_type": "tanh"}, 
      "inputs": [[744, 1, 0]]
    }, 
    {
      "op": "elemwise_mul", 
      "name": "_mul208", 
      "inputs": [[748, 0, 0], [749, 0, 0]]
    }, 
    {
      "op": "elemwise_add", 
      "name": "_plus139", 
      "inputs": [[747, 0, 0], [750, 0, 0]]
    }, 
    {
      "op": "Activation", 
      "name": "activation353", 
      "attrs": {"act_type": "tanh"}, 
      "inputs": [[751, 0, 0]]
    }, 
    {
      "op": "elemwise_mul", 
      "name": "_mul209", 
      "inputs": [[745, 0, 0], [752, 0, 0]]
    }, 
    {
      "op": "FullyConnected", 
      "name": "t9_l3_h2h", 
      "attrs": {"num_hidden": "400"}, 
      "inputs": [[753, 0, 0], [631, 0, 0], [632, 0, 0]]
    }, 
    {
      "op": "elemwise_add", 
      "name": "_plus140", 
      "inputs": [[479, 0, 0], [754, 0, 0]]
    }, 
    {
      "op": "SliceChannel", 
      "name": "t9_l3_slice", 
      "attrs": {"num_outputs": "4"}, 
      "inputs": [[755, 0, 0]]
    }, 
    {
      "op": "Activation", 
      "name": "activation357", 
      "attrs": {"act_type": "sigmoid"}, 
      "inputs": [[756, 3, 0]]
    }, 
    {
      "op": "Activation", 
      "name": "activation356", 
      "attrs": {"act_type": "sigmoid"}, 
      "inputs": [[756, 2, 0]]
    }, 
    {
      "op": "elemwise_mul", 
      "name": "_mul210", 
      "inputs": [[758, 0, 0], [751, 0, 0]]
    }, 
    {
      "op": "Activation", 
      "name": "activation354", 
      "attrs": {"act_type": "sigmoid"}, 
      "inputs": [[756, 0, 0]]
    }, 
    {
      "op": "Activation", 
      "name": "activation355", 
      "attrs": {"act_type": "tanh"}, 
      "inputs": [[756, 1, 0]]
    }, 
    {
      "op": "elemwise_mul", 
      "name": "_mul211", 
      "inputs": [[760, 0, 0], [761, 0, 0]]
    }, 
    {
      "op": "elemwise_add", 
      "name": "_plus141", 
      "inputs": [[759, 0, 0], [762, 0, 0]]
    }, 
    {
      "op": "Activation", 
      "name": "activation358", 
      "attrs": {"act_type": "tanh"}, 
      "inputs": [[763, 0, 0]]
    }, 
    {
      "op": "elemwise_mul", 
      "name": "_mul212", 
      "inputs": [[757, 0, 0], [764, 0, 0]]
    }, 
    {
      "op": "FullyConnected", 
      "name": "t8_l3_h2h", 
      "attrs": {"num_hidden": "400"}, 
      "inputs": [[765, 0, 0], [631, 0, 0], [632, 0, 0]]
    }, 
    {
      "op": "elemwise_add", 
      "name": "_plus142", 
      "inputs": [[464, 0, 0], [766, 0, 0]]
    }, 
    {
      "op": "SliceChannel", 
      "name": "t8_l3_slice", 
      "attrs": {"num_outputs": "4"}, 
      "inputs": [[767, 0, 0]]
    }, 
    {
      "op": "Activation", 
      "name": "activation362", 
      "attrs": {"act_type": "sigmoid"}, 
      "inputs": [[768, 3, 0]]
    }, 
    {
      "op": "Activation", 
      "name": "activation361", 
      "attrs": {"act_type": "sigmoid"}, 
      "inputs": [[768, 2, 0]]
    }, 
    {
      "op": "elemwise_mul", 
      "name": "_mul213", 
      "inputs": [[770, 0, 0], [763, 0, 0]]
    }, 
    {
      "op": "Activation", 
      "name": "activation359", 
      "attrs": {"act_type": "sigmoid"}, 
      "inputs": [[768, 0, 0]]
    }, 
    {
      "op": "Activation", 
      "name": "activation360", 
      "attrs": {"act_type": "tanh"}, 
      "inputs": [[768, 1, 0]]
    }, 
    {
      "op": "elemwise_mul", 
      "name": "_mul214", 
      "inputs": [[772, 0, 0], [773, 0, 0]]
    }, 
    {
      "op": "elemwise_add", 
      "name": "_plus143", 
      "inputs": [[771, 0, 0], [774, 0, 0]]
    }, 
    {
      "op": "Activation", 
      "name": "activation363", 
      "attrs": {"act_type": "tanh"}, 
      "inputs": [[775, 0, 0]]
    }, 
    {
      "op": "elemwise_mul", 
      "name": "_mul215", 
      "inputs": [[769, 0, 0], [776, 0, 0]]
    }, 
    {
      "op": "FullyConnected", 
      "name": "t7_l3_h2h", 
      "attrs": {"num_hidden": "400"}, 
      "inputs": [[777, 0, 0], [631, 0, 0], [632, 0, 0]]
    }, 
    {
      "op": "elemwise_add", 
      "name": "_plus144", 
      "inputs": [[449, 0, 0], [778, 0, 0]]
    }, 
    {
      "op": "SliceChannel", 
      "name": "t7_l3_slice", 
      "attrs": {"num_outputs": "4"}, 
      "inputs": [[779, 0, 0]]
    }, 
    {
      "op": "Activation", 
      "name": "activation367", 
      "attrs": {"act_type": "sigmoid"}, 
      "inputs": [[780, 3, 0]]
    }, 
    {
      "op": "Activation", 
      "name": "activation366", 
      "attrs": {"act_type": "sigmoid"}, 
      "inputs": [[780, 2, 0]]
    }, 
    {
      "op": "elemwise_mul", 
      "name": "_mul216", 
      "inputs": [[782, 0, 0], [775, 0, 0]]
    }, 
    {
      "op": "Activation", 
      "name": "activation364", 
      "attrs": {"act_type": "sigmoid"}, 
      "inputs": [[780, 0, 0]]
    }, 
    {
      "op": "Activation", 
      "name": "activation365", 
      "attrs": {"act_type": "tanh"}, 
      "inputs": [[780, 1, 0]]
    }, 
    {
      "op": "elemwise_mul", 
      "name": "_mul217", 
      "inputs": [[784, 0, 0], [785, 0, 0]]
    }, 
    {
      "op": "elemwise_add", 
      "name": "_plus145", 
      "inputs": [[783, 0, 0], [786, 0, 0]]
    }, 
    {
      "op": "Activation", 
      "name": "activation368", 
      "attrs": {"act_type": "tanh"}, 
      "inputs": [[787, 0, 0]]
    }, 
    {
      "op": "elemwise_mul", 
      "name": "_mul218", 
      "inputs": [[781, 0, 0], [788, 0, 0]]
    }, 
    {
      "op": "FullyConnected", 
      "name": "t6_l3_h2h", 
      "attrs": {"num_hidden": "400"}, 
      "inputs": [[789, 0, 0], [631, 0, 0], [632, 0, 0]]
    }, 
    {
      "op": "elemwise_add", 
      "name": "_plus146", 
      "inputs": [[434, 0, 0], [790, 0, 0]]
    }, 
    {
      "op": "SliceChannel", 
      "name": "t6_l3_slice", 
      "attrs": {"num_outputs": "4"}, 
      "inputs": [[791, 0, 0]]
    }, 
    {
      "op": "Activation", 
      "name": "activation372", 
      "attrs": {"act_type": "sigmoid"}, 
      "inputs": [[792, 3, 0]]
    }, 
    {
      "op": "Activation", 
      "name": "activation371", 
      "attrs": {"act_type": "sigmoid"}, 
      "inputs": [[792, 2, 0]]
    }, 
    {
      "op": "elemwise_mul", 
      "name": "_mul219", 
      "inputs": [[794, 0, 0], [787, 0, 0]]
    }, 
    {
      "op": "Activation", 
      "name": "activation369", 
      "attrs": {"act_type": "sigmoid"}, 
      "inputs": [[792, 0, 0]]
    }, 
    {
      "op": "Activation", 
      "name": "activation370", 
      "attrs": {"act_type": "tanh"}, 
      "inputs": [[792, 1, 0]]
    }, 
    {
      "op": "elemwise_mul", 
      "name": "_mul220", 
      "inputs": [[796, 0, 0], [797, 0, 0]]
    }, 
    {
      "op": "elemwise_add", 
      "name": "_plus147", 
      "inputs": [[795, 0, 0], [798, 0, 0]]
    }, 
    {
      "op": "Activation", 
      "name": "activation373", 
      "attrs": {"act_type": "tanh"}, 
      "inputs": [[799, 0, 0]]
    }, 
    {
      "op": "elemwise_mul", 
      "name": "_mul221", 
      "inputs": [[793, 0, 0], [800, 0, 0]]
    }, 
    {
      "op": "FullyConnected", 
      "name": "t5_l3_h2h", 
      "attrs": {"num_hidden": "400"}, 
      "inputs": [[801, 0, 0], [631, 0, 0], [632, 0, 0]]
    }, 
    {
      "op": "elemwise_add", 
      "name": "_plus148", 
      "inputs": [[419, 0, 0], [802, 0, 0]]
    }, 
    {
      "op": "SliceChannel", 
      "name": "t5_l3_slice", 
      "attrs": {"num_outputs": "4"}, 
      "inputs": [[803, 0, 0]]
    }, 
    {
      "op": "Activation", 
      "name": "activation377", 
      "attrs": {"act_type": "sigmoid"}, 
      "inputs": [[804, 3, 0]]
    }, 
    {
      "op": "Activation", 
      "name": "activation376", 
      "attrs": {"act_type": "sigmoid"}, 
      "inputs": [[804, 2, 0]]
    }, 
    {
      "op": "elemwise_mul", 
      "name": "_mul222", 
      "inputs": [[806, 0, 0], [799, 0, 0]]
    }, 
    {
      "op": "Activation", 
      "name": "activation374", 
      "attrs": {"act_type": "sigmoid"}, 
      "inputs": [[804, 0, 0]]
    }, 
    {
      "op": "Activation", 
      "name": "activation375", 
      "attrs": {"act_type": "tanh"}, 
      "inputs": [[804, 1, 0]]
    }, 
    {
      "op": "elemwise_mul", 
      "name": "_mul223", 
      "inputs": [[808, 0, 0], [809, 0, 0]]
    }, 
    {
      "op": "elemwise_add", 
      "name": "_plus149", 
      "inputs": [[807, 0, 0], [810, 0, 0]]
    }, 
    {
      "op": "Activation", 
      "name": "activation378", 
      "attrs": {"act_type": "tanh"}, 
      "inputs": [[811, 0, 0]]
    }, 
    {
      "op": "elemwise_mul", 
      "name": "_mul224", 
      "inputs": [[805, 0, 0], [812, 0, 0]]
    }, 
    {
      "op": "FullyConnected", 
      "name": "t4_l3_h2h", 
      "attrs": {"num_hidden": "400"}, 
      "inputs": [[813, 0, 0], [631, 0, 0], [632, 0, 0]]
    }, 
    {
      "op": "elemwise_add", 
      "name": "_plus150", 
      "inputs": [[404, 0, 0], [814, 0, 0]]
    }, 
    {
      "op": "SliceChannel", 
      "name": "t4_l3_slice", 
      "attrs": {"num_outputs": "4"}, 
      "inputs": [[815, 0, 0]]
    }, 
    {
      "op": "Activation", 
      "name": "activation382", 
      "attrs": {"act_type": "sigmoid"}, 
      "inputs": [[816, 3, 0]]
    }, 
    {
      "op": "Activation", 
      "name": "activation381", 
      "attrs": {"act_type": "sigmoid"}, 
      "inputs": [[816, 2, 0]]
    }, 
    {
      "op": "elemwise_mul", 
      "name": "_mul225", 
      "inputs": [[818, 0, 0], [811, 0, 0]]
    }, 
    {
      "op": "Activation", 
      "name": "activation379", 
      "attrs": {"act_type": "sigmoid"}, 
      "inputs": [[816, 0, 0]]
    }, 
    {
      "op": "Activation", 
      "name": "activation380", 
      "attrs": {"act_type": "tanh"}, 
      "inputs": [[816, 1, 0]]
    }, 
    {
      "op": "elemwise_mul", 
      "name": "_mul226", 
      "inputs": [[820, 0, 0], [821, 0, 0]]
    }, 
    {
      "op": "elemwise_add", 
      "name": "_plus151", 
      "inputs": [[819, 0, 0], [822, 0, 0]]
    }, 
    {
      "op": "Activation", 
      "name": "activation383", 
      "attrs": {"act_type": "tanh"}, 
      "inputs": [[823, 0, 0]]
    }, 
    {
      "op": "elemwise_mul", 
      "name": "_mul227", 
      "inputs": [[817, 0, 0], [824, 0, 0]]
    }, 
    {
      "op": "FullyConnected", 
      "name": "t3_l3_h2h", 
      "attrs": {"num_hidden": "400"}, 
      "inputs": [[825, 0, 0], [631, 0, 0], [632, 0, 0]]
    }, 
    {
      "op": "elemwise_add", 
      "name": "_plus152", 
      "inputs": [[389, 0, 0], [826, 0, 0]]
    }, 
    {
      "op": "SliceChannel", 
      "name": "t3_l3_slice", 
      "attrs": {"num_outputs": "4"}, 
      "inputs": [[827, 0, 0]]
    }, 
    {
      "op": "Activation", 
      "name": "activation387", 
      "attrs": {"act_type": "sigmoid"}, 
      "inputs": [[828, 3, 0]]
    }, 
    {
      "op": "Activation", 
      "name": "activation386", 
      "attrs": {"act_type": "sigmoid"}, 
      "inputs": [[828, 2, 0]]
    }, 
    {
      "op": "elemwise_mul", 
      "name": "_mul228", 
      "inputs": [[830, 0, 0], [823, 0, 0]]
    }, 
    {
      "op": "Activation", 
      "name": "activation384", 
      "attrs": {"act_type": "sigmoid"}, 
      "inputs": [[828, 0, 0]]
    }, 
    {
      "op": "Activation", 
      "name": "activation385", 
      "attrs": {"act_type": "tanh"}, 
      "inputs": [[828, 1, 0]]
    }, 
    {
      "op": "elemwise_mul", 
      "name": "_mul229", 
      "inputs": [[832, 0, 0], [833, 0, 0]]
    }, 
    {
      "op": "elemwise_add", 
      "name": "_plus153", 
      "inputs": [[831, 0, 0], [834, 0, 0]]
    }, 
    {
      "op": "Activation", 
      "name": "activation388", 
      "attrs": {"act_type": "tanh"}, 
      "inputs": [[835, 0, 0]]
    }, 
    {
      "op": "elemwise_mul", 
      "name": "_mul230", 
      "inputs": [[829, 0, 0], [836, 0, 0]]
    }, 
    {
      "op": "FullyConnected", 
      "name": "t2_l3_h2h", 
      "attrs": {"num_hidden": "400"}, 
      "inputs": [[837, 0, 0], [631, 0, 0], [632, 0, 0]]
    }, 
    {
      "op": "elemwise_add", 
      "name": "_plus154", 
      "inputs": [[374, 0, 0], [838, 0, 0]]
    }, 
    {
      "op": "SliceChannel", 
      "name": "t2_l3_slice", 
      "attrs": {"num_outputs": "4"}, 
      "inputs": [[839, 0, 0]]
    }, 
    {
      "op": "Activation", 
      "name": "activation392", 
      "attrs": {"act_type": "sigmoid"}, 
      "inputs": [[840, 3, 0]]
    }, 
    {
      "op": "Activation", 
      "name": "activation391", 
      "attrs": {"act_type": "sigmoid"}, 
      "inputs": [[840, 2, 0]]
    }, 
    {
      "op": "elemwise_mul", 
      "name": "_mul231", 
      "inputs": [[842, 0, 0], [835, 0, 0]]
    }, 
    {
      "op": "Activation", 
      "name": "activation389", 
      "attrs": {"act_type": "sigmoid"}, 
      "inputs": [[840, 0, 0]]
    }, 
    {
      "op": "Activation", 
      "name": "activation390", 
      "attrs": {"act_type": "tanh"}, 
      "inputs": [[840, 1, 0]]
    }, 
    {
      "op": "elemwise_mul", 
      "name": "_mul232", 
      "inputs": [[844, 0, 0], [845, 0, 0]]
    }, 
    {
      "op": "elemwise_add", 
      "name": "_plus155", 
      "inputs": [[843, 0, 0], [846, 0, 0]]
    }, 
    {
      "op": "Activation", 
      "name": "activation393", 
      "attrs": {"act_type": "tanh"}, 
      "inputs": [[847, 0, 0]]
    }, 
    {
      "op": "elemwise_mul", 
      "name": "_mul233", 
      "inputs": [[841, 0, 0], [848, 0, 0]]
    }, 
    {
      "op": "FullyConnected", 
      "name": "t1_l3_h2h", 
      "attrs": {"num_hidden": "400"}, 
      "inputs": [[849, 0, 0], [631, 0, 0], [632, 0, 0]]
    }, 
    {
      "op": "elemwise_add", 
      "name": "_plus156", 
      "inputs": [[359, 0, 0], [850, 0, 0]]
    }, 
    {
      "op": "SliceChannel", 
      "name": "t1_l3_slice", 
      "attrs": {"num_outputs": "4"}, 
      "inputs": [[851, 0, 0]]
    }, 
    {
      "op": "Activation", 
      "name": "activation397", 
      "attrs": {"act_type": "sigmoid"}, 
      "inputs": [[852, 3, 0]]
    }, 
    {
      "op": "Activation", 
      "name": "activation396", 
      "attrs": {"act_type": "sigmoid"}, 
      "inputs": [[852, 2, 0]]
    }, 
    {
      "op": "elemwise_mul", 
      "name": "_mul234", 
      "inputs": [[854, 0, 0], [847, 0, 0]]
    }, 
    {
      "op": "Activation", 
      "name": "activation394", 
      "attrs": {"act_type": "sigmoid"}, 
      "inputs": [[852, 0, 0]]
    }, 
    {
      "op": "Activation", 
      "name": "activation395", 
      "attrs": {"act_type": "tanh"}, 
      "inputs": [[852, 1, 0]]
    }, 
    {
      "op": "elemwise_mul", 
      "name": "_mul235", 
      "inputs": [[856, 0, 0], [857, 0, 0]]
    }, 
    {
      "op": "elemwise_add", 
      "name": "_plus157", 
      "inputs": [[855, 0, 0], [858, 0, 0]]
    }, 
    {
      "op": "Activation", 
      "name": "activation398", 
      "attrs": {"act_type": "tanh"}, 
      "inputs": [[859, 0, 0]]
    }, 
    {
      "op": "elemwise_mul", 
      "name": "_mul236", 
      "inputs": [[853, 0, 0], [860, 0, 0]]
    }, 
    {
      "op": "FullyConnected", 
      "name": "t0_l3_h2h", 
      "attrs": {"num_hidden": "400"}, 
      "inputs": [[861, 0, 0], [631, 0, 0], [632, 0, 0]]
    }, 
    {
      "op": "elemwise_add", 
      "name": "_plus158", 
      "inputs": [[344, 0, 0], [862, 0, 0]]
    }, 
    {
      "op": "SliceChannel", 
      "name": "t0_l3_slice", 
      "attrs": {"num_outputs": "4"}, 
      "inputs": [[863, 0, 0]]
    }, 
    {
      "op": "Activation", 
      "name": "activation402", 
      "attrs": {"act_type": "sigmoid"}, 
      "inputs": [[864, 3, 0]]
    }, 
    {
      "op": "Activation", 
      "name": "activation401", 
      "attrs": {"act_type": "sigmoid"}, 
      "inputs": [[864, 2, 0]]
    }, 
    {
      "op": "elemwise_mul", 
      "name": "_mul237", 
      "inputs": [[866, 0, 0], [859, 0, 0]]
    }, 
    {
      "op": "Activation", 
      "name": "activation399", 
      "attrs": {"act_type": "sigmoid"}, 
      "inputs": [[864, 0, 0]]
    }, 
    {
      "op": "Activation", 
      "name": "activation400", 
      "attrs": {"act_type": "tanh"}, 
      "inputs": [[864, 1, 0]]
    }, 
    {
      "op": "elemwise_mul", 
      "name": "_mul238", 
      "inputs": [[868, 0, 0], [869, 0, 0]]
    }, 
    {
      "op": "elemwise_add", 
      "name": "_plus159", 
      "inputs": [[867, 0, 0], [870, 0, 0]]
    }, 
    {
      "op": "Activation", 
      "name": "activation403", 
      "attrs": {"act_type": "tanh"}, 
      "inputs": [[871, 0, 0]]
    }, 
    {
      "op": "elemwise_mul", 
      "name": "_mul239", 
      "inputs": [[865, 0, 0], [872, 0, 0]]
    }, 
    {
      "op": "Concat", 
      "name": "concat39", 
      "attrs": {"num_args": "2"}, 
      "inputs": [[341, 0, 0], [873, 0, 0]]
    }, 
    {
      "op": "FullyConnected", 
      "name": "t1_l2_i2h", 
      "attrs": {"num_hidden": "400"}, 
      "inputs": [[358, 0, 0], [323, 0, 0], [324, 0, 0]]
    }, 
    {
      "op": "FullyConnected", 
      "name": "t1_l2_h2h", 
      "attrs": {"num_hidden": "400"}, 
      "inputs": [[341, 0, 0], [327, 0, 0], [328, 0, 0]]
    }, 
    {
      "op": "elemwise_add", 
      "name": "_plus82", 
      "inputs": [[875, 0, 0], [876, 0, 0]]
    }, 
    {
      "op": "SliceChannel", 
      "name": "t1_l2_slice", 
      "attrs": {"num_outputs": "4"}, 
      "inputs": [[877, 0, 0]]
    }, 
    {
      "op": "Activation", 
      "name": "activation212", 
      "attrs": {"act_type": "sigmoid"}, 
      "inputs": [[878, 3, 0]]
    }, 
    {
      "op": "Activation", 
      "name": "activation211", 
      "attrs": {"act_type": "sigmoid"}, 
      "inputs": [[878, 2, 0]]
    }, 
    {
      "op": "elemwise_mul", 
      "name": "_mul123", 
      "inputs": [[880, 0, 0], [339, 0, 0]]
    }, 
    {
      "op": "Activation", 
      "name": "activation209", 
      "attrs": {"act_type": "sigmoid"}, 
      "inputs": [[878, 0, 0]]
    }, 
    {
      "op": "Activation", 
      "name": "activation210", 
      "attrs": {"act_type": "tanh"}, 
      "inputs": [[878, 1, 0]]
    }, 
    {
      "op": "elemwise_mul", 
      "name": "_mul124", 
      "inputs": [[882, 0, 0], [883, 0, 0]]
    }, 
    {
      "op": "elemwise_add", 
      "name": "_plus83", 
      "inputs": [[881, 0, 0], [884, 0, 0]]
    }, 
    {
      "op": "Activation", 
      "name": "activation213", 
      "attrs": {"act_type": "tanh"}, 
      "inputs": [[885, 0, 0]]
    }, 
    {
      "op": "elemwise_mul", 
      "name": "_mul125", 
      "inputs": [[879, 0, 0], [886, 0, 0]]
    }, 
    {
      "op": "Concat", 
      "name": "concat38", 
      "attrs": {"num_args": "2"}, 
      "inputs": [[887, 0, 0], [861, 0, 0]]
    }, 
    {
      "op": "FullyConnected", 
      "name": "t2_l2_i2h", 
      "attrs": {"num_hidden": "400"}, 
      "inputs": [[373, 0, 0], [323, 0, 0], [324, 0, 0]]
    }, 
    {
      "op": "FullyConnected", 
      "name": "t2_l2_h2h", 
      "attrs": {"num_hidden": "400"}, 
      "inputs": [[887, 0, 0], [327, 0, 0], [328, 0, 0]]
    }, 
    {
      "op": "elemwise_add", 
      "name": "_plus84", 
      "inputs": [[889, 0, 0], [890, 0, 0]]
    }, 
    {
      "op": "SliceChannel", 
      "name": "t2_l2_slice", 
      "attrs": {"num_outputs": "4"}, 
      "inputs": [[891, 0, 0]]
    }, 
    {
      "op": "Activation", 
      "name": "activation217", 
      "attrs": {"act_type": "sigmoid"}, 
      "inputs": [[892, 3, 0]]
    }, 
    {
      "op": "Activation", 
      "name": "activation216", 
      "attrs": {"act_type": "sigmoid"}, 
      "inputs": [[892, 2, 0]]
    }, 
    {
      "op": "elemwise_mul", 
      "name": "_mul126", 
      "inputs": [[894, 0, 0], [885, 0, 0]]
    }, 
    {
      "op": "Activation", 
      "name": "activation214", 
      "attrs": {"act_type": "sigmoid"}, 
      "inputs": [[892, 0, 0]]
    }, 
    {
      "op": "Activation", 
      "name": "activation215", 
      "attrs": {"act_type": "tanh"}, 
      "inputs": [[892, 1, 0]]
    }, 
    {
      "op": "elemwise_mul", 
      "name": "_mul127", 
      "inputs": [[896, 0, 0], [897, 0, 0]]
    }, 
    {
      "op": "elemwise_add", 
      "name": "_plus85", 
      "inputs": [[895, 0, 0], [898, 0, 0]]
    }, 
    {
      "op": "Activation", 
      "name": "activation218", 
      "attrs": {"act_type": "tanh"}, 
      "inputs": [[899, 0, 0]]
    }, 
    {
      "op": "elemwise_mul", 
      "name": "_mul128", 
      "inputs": [[893, 0, 0], [900, 0, 0]]
    }, 
    {
      "op": "Concat", 
      "name": "concat37", 
      "attrs": {"num_args": "2"}, 
      "inputs": [[901, 0, 0], [849, 0, 0]]
    }, 
    {
      "op": "FullyConnected", 
      "name": "t3_l2_i2h", 
      "attrs": {"num_hidden": "400"}, 
      "inputs": [[388, 0, 0], [323, 0, 0], [324, 0, 0]]
    }, 
    {
      "op": "FullyConnected", 
      "name": "t3_l2_h2h", 
      "attrs": {"num_hidden": "400"}, 
      "inputs": [[901, 0, 0], [327, 0, 0], [328, 0, 0]]
    }, 
    {
      "op": "elemwise_add", 
      "name": "_plus86", 
      "inputs": [[903, 0, 0], [904, 0, 0]]
    }, 
    {
      "op": "SliceChannel", 
      "name": "t3_l2_slice", 
      "attrs": {"num_outputs": "4"}, 
      "inputs": [[905, 0, 0]]
    }, 
    {
      "op": "Activation", 
      "name": "activation222", 
      "attrs": {"act_type": "sigmoid"}, 
      "inputs": [[906, 3, 0]]
    }, 
    {
      "op": "Activation", 
      "name": "activation221", 
      "attrs": {"act_type": "sigmoid"}, 
      "inputs": [[906, 2, 0]]
    }, 
    {
      "op": "elemwise_mul", 
      "name": "_mul129", 
      "inputs": [[908, 0, 0], [899, 0, 0]]
    }, 
    {
      "op": "Activation", 
      "name": "activation219", 
      "attrs": {"act_type": "sigmoid"}, 
      "inputs": [[906, 0, 0]]
    }, 
    {
      "op": "Activation", 
      "name": "activation220", 
      "attrs": {"act_type": "tanh"}, 
      "inputs": [[906, 1, 0]]
    }, 
    {
      "op": "elemwise_mul", 
      "name": "_mul130", 
      "inputs": [[910, 0, 0], [911, 0, 0]]
    }, 
    {
      "op": "elemwise_add", 
      "name": "_plus87", 
      "inputs": [[909, 0, 0], [912, 0, 0]]
    }, 
    {
      "op": "Activation", 
      "name": "activation223", 
      "attrs": {"act_type": "tanh"}, 
      "inputs": [[913, 0, 0]]
    }, 
    {
      "op": "elemwise_mul", 
      "name": "_mul131", 
      "inputs": [[907, 0, 0], [914, 0, 0]]
    }, 
    {
      "op": "Concat", 
      "name": "concat36", 
      "attrs": {"num_args": "2"}, 
      "inputs": [[915, 0, 0], [837, 0, 0]]
    }, 
    {
      "op": "FullyConnected", 
      "name": "t4_l2_i2h", 
      "attrs": {"num_hidden": "400"}, 
      "inputs": [[403, 0, 0], [323, 0, 0], [324, 0, 0]]
    }, 
    {
      "op": "FullyConnected", 
      "name": "t4_l2_h2h", 
      "attrs": {"num_hidden": "400"}, 
      "inputs": [[915, 0, 0], [327, 0, 0], [328, 0, 0]]
    }, 
    {
      "op": "elemwise_add", 
      "name": "_plus88", 
      "inputs": [[917, 0, 0], [918, 0, 0]]
    }, 
    {
      "op": "SliceChannel", 
      "name": "t4_l2_slice", 
      "attrs": {"num_outputs": "4"}, 
      "inputs": [[919, 0, 0]]
    }, 
    {
      "op": "Activation", 
      "name": "activation227", 
      "attrs": {"act_type": "sigmoid"}, 
      "inputs": [[920, 3, 0]]
    }, 
    {
      "op": "Activation", 
      "name": "activation226", 
      "attrs": {"act_type": "sigmoid"}, 
      "inputs": [[920, 2, 0]]
    }, 
    {
      "op": "elemwise_mul", 
      "name": "_mul132", 
      "inputs": [[922, 0, 0], [913, 0, 0]]
    }, 
    {
      "op": "Activation", 
      "name": "activation224", 
      "attrs": {"act_type": "sigmoid"}, 
      "inputs": [[920, 0, 0]]
    }, 
    {
      "op": "Activation", 
      "name": "activation225", 
      "attrs": {"act_type": "tanh"}, 
      "inputs": [[920, 1, 0]]
    }, 
    {
      "op": "elemwise_mul", 
      "name": "_mul133", 
      "inputs": [[924, 0, 0], [925, 0, 0]]
    }, 
    {
      "op": "elemwise_add", 
      "name": "_plus89", 
      "inputs": [[923, 0, 0], [926, 0, 0]]
    }, 
    {
      "op": "Activation", 
      "name": "activation228", 
      "attrs": {"act_type": "tanh"}, 
      "inputs": [[927, 0, 0]]
    }, 
    {
      "op": "elemwise_mul", 
      "name": "_mul134", 
      "inputs": [[921, 0, 0], [928, 0, 0]]
    }, 
    {
      "op": "Concat", 
      "name": "concat35", 
      "attrs": {"num_args": "2"}, 
      "inputs": [[929, 0, 0], [825, 0, 0]]
    }, 
    {
      "op": "FullyConnected", 
      "name": "t5_l2_i2h", 
      "attrs": {"num_hidden": "400"}, 
      "inputs": [[418, 0, 0], [323, 0, 0], [324, 0, 0]]
    }, 
    {
      "op": "FullyConnected", 
      "name": "t5_l2_h2h", 
      "attrs": {"num_hidden": "400"}, 
      "inputs": [[929, 0, 0], [327, 0, 0], [328, 0, 0]]
    }, 
    {
      "op": "elemwise_add", 
      "name": "_plus90", 
      "inputs": [[931, 0, 0], [932, 0, 0]]
    }, 
    {
      "op": "SliceChannel", 
      "name": "t5_l2_slice", 
      "attrs": {"num_outputs": "4"}, 
      "inputs": [[933, 0, 0]]
    }, 
    {
      "op": "Activation", 
      "name": "activation232", 
      "attrs": {"act_type": "sigmoid"}, 
      "inputs": [[934, 3, 0]]
    }, 
    {
      "op": "Activation", 
      "name": "activation231", 
      "attrs": {"act_type": "sigmoid"}, 
      "inputs": [[934, 2, 0]]
    }, 
    {
      "op": "elemwise_mul", 
      "name": "_mul135", 
      "inputs": [[936, 0, 0], [927, 0, 0]]
    }, 
    {
      "op": "Activation", 
      "name": "activation229", 
      "attrs": {"act_type": "sigmoid"}, 
      "inputs": [[934, 0, 0]]
    }, 
    {
      "op": "Activation", 
      "name": "activation230", 
      "attrs": {"act_type": "tanh"}, 
      "inputs": [[934, 1, 0]]
    }, 
    {
      "op": "elemwise_mul", 
      "name": "_mul136", 
      "inputs": [[938, 0, 0], [939, 0, 0]]
    }, 
    {
      "op": "elemwise_add", 
      "name": "_plus91", 
      "inputs": [[937, 0, 0], [940, 0, 0]]
    }, 
    {
      "op": "Activation", 
      "name": "activation233", 
      "attrs": {"act_type": "tanh"}, 
      "inputs": [[941, 0, 0]]
    }, 
    {
      "op": "elemwise_mul", 
      "name": "_mul137", 
      "inputs": [[935, 0, 0], [942, 0, 0]]
    }, 
    {
      "op": "Concat", 
      "name": "concat34", 
      "attrs": {"num_args": "2"}, 
      "inputs": [[943, 0, 0], [813, 0, 0]]
    }, 
    {
      "op": "FullyConnected", 
      "name": "t6_l2_i2h", 
      "attrs": {"num_hidden": "400"}, 
      "inputs": [[433, 0, 0], [323, 0, 0], [324, 0, 0]]
    }, 
    {
      "op": "FullyConnected", 
      "name": "t6_l2_h2h", 
      "attrs": {"num_hidden": "400"}, 
      "inputs": [[943, 0, 0], [327, 0, 0], [328, 0, 0]]
    }, 
    {
      "op": "elemwise_add", 
      "name": "_plus92", 
      "inputs": [[945, 0, 0], [946, 0, 0]]
    }, 
    {
      "op": "SliceChannel", 
      "name": "t6_l2_slice", 
      "attrs": {"num_outputs": "4"}, 
      "inputs": [[947, 0, 0]]
    }, 
    {
      "op": "Activation", 
      "name": "activation237", 
      "attrs": {"act_type": "sigmoid"}, 
      "inputs": [[948, 3, 0]]
    }, 
    {
      "op": "Activation", 
      "name": "activation236", 
      "attrs": {"act_type": "sigmoid"}, 
      "inputs": [[948, 2, 0]]
    }, 
    {
      "op": "elemwise_mul", 
      "name": "_mul138", 
      "inputs": [[950, 0, 0], [941, 0, 0]]
    }, 
    {
      "op": "Activation", 
      "name": "activation234", 
      "attrs": {"act_type": "sigmoid"}, 
      "inputs": [[948, 0, 0]]
    }, 
    {
      "op": "Activation", 
      "name": "activation235", 
      "attrs": {"act_type": "tanh"}, 
      "inputs": [[948, 1, 0]]
    }, 
    {
      "op": "elemwise_mul", 
      "name": "_mul139", 
      "inputs": [[952, 0, 0], [953, 0, 0]]
    }, 
    {
      "op": "elemwise_add", 
      "name": "_plus93", 
      "inputs": [[951, 0, 0], [954, 0, 0]]
    }, 
    {
      "op": "Activation", 
      "name": "activation238", 
      "attrs": {"act_type": "tanh"}, 
      "inputs": [[955, 0, 0]]
    }, 
    {
      "op": "elemwise_mul", 
      "name": "_mul140", 
      "inputs": [[949, 0, 0], [956, 0, 0]]
    }, 
    {
      "op": "Concat", 
      "name": "concat33", 
      "attrs": {"num_args": "2"}, 
      "inputs": [[957, 0, 0], [801, 0, 0]]
    }, 
    {
      "op": "FullyConnected", 
      "name": "t7_l2_i2h", 
      "attrs": {"num_hidden": "400"}, 
      "inputs": [[448, 0, 0], [323, 0, 0], [324, 0, 0]]
    }, 
    {
      "op": "FullyConnected", 
      "name": "t7_l2_h2h", 
      "attrs": {"num_hidden": "400"}, 
      "inputs": [[957, 0, 0], [327, 0, 0], [328, 0, 0]]
    }, 
    {
      "op": "elemwise_add", 
      "name": "_plus94", 
      "inputs": [[959, 0, 0], [960, 0, 0]]
    }, 
    {
      "op": "SliceChannel", 
      "name": "t7_l2_slice", 
      "attrs": {"num_outputs": "4"}, 
      "inputs": [[961, 0, 0]]
    }, 
    {
      "op": "Activation", 
      "name": "activation242", 
      "attrs": {"act_type": "sigmoid"}, 
      "inputs": [[962, 3, 0]]
    }, 
    {
      "op": "Activation", 
      "name": "activation241", 
      "attrs": {"act_type": "sigmoid"}, 
      "inputs": [[962, 2, 0]]
    }, 
    {
      "op": "elemwise_mul", 
      "name": "_mul141", 
      "inputs": [[964, 0, 0], [955, 0, 0]]
    }, 
    {
      "op": "Activation", 
      "name": "activation239", 
      "attrs": {"act_type": "sigmoid"}, 
      "inputs": [[962, 0, 0]]
    }, 
    {
      "op": "Activation", 
      "name": "activation240", 
      "attrs": {"act_type": "tanh"}, 
      "inputs": [[962, 1, 0]]
    }, 
    {
      "op": "elemwise_mul", 
      "name": "_mul142", 
      "inputs": [[966, 0, 0], [967, 0, 0]]
    }, 
    {
      "op": "elemwise_add", 
      "name": "_plus95", 
      "inputs": [[965, 0, 0], [968, 0, 0]]
    }, 
    {
      "op": "Activation", 
      "name": "activation243", 
      "attrs": {"act_type": "tanh"}, 
      "inputs": [[969, 0, 0]]
    }, 
    {
      "op": "elemwise_mul", 
      "name": "_mul143", 
      "inputs": [[963, 0, 0], [970, 0, 0]]
    }, 
    {
      "op": "Concat", 
      "name": "concat32", 
      "attrs": {"num_args": "2"}, 
      "inputs": [[971, 0, 0], [789, 0, 0]]
    }, 
    {
      "op": "FullyConnected", 
      "name": "t8_l2_i2h", 
      "attrs": {"num_hidden": "400"}, 
      "inputs": [[463, 0, 0], [323, 0, 0], [324, 0, 0]]
    }, 
    {
      "op": "FullyConnected", 
      "name": "t8_l2_h2h", 
      "attrs": {"num_hidden": "400"}, 
      "inputs": [[971, 0, 0], [327, 0, 0], [328, 0, 0]]
    }, 
    {
      "op": "elemwise_add", 
      "name": "_plus96", 
      "inputs": [[973, 0, 0], [974, 0, 0]]
    }, 
    {
      "op": "SliceChannel", 
      "name": "t8_l2_slice", 
      "attrs": {"num_outputs": "4"}, 
      "inputs": [[975, 0, 0]]
    }, 
    {
      "op": "Activation", 
      "name": "activation247", 
      "attrs": {"act_type": "sigmoid"}, 
      "inputs": [[976, 3, 0]]
    }, 
    {
      "op": "Activation", 
      "name": "activation246", 
      "attrs": {"act_type": "sigmoid"}, 
      "inputs": [[976, 2, 0]]
    }, 
    {
      "op": "elemwise_mul", 
      "name": "_mul144", 
      "inputs": [[978, 0, 0], [969, 0, 0]]
    }, 
    {
      "op": "Activation", 
      "name": "activation244", 
      "attrs": {"act_type": "sigmoid"}, 
      "inputs": [[976, 0, 0]]
    }, 
    {
      "op": "Activation", 
      "name": "activation245", 
      "attrs": {"act_type": "tanh"}, 
      "inputs": [[976, 1, 0]]
    }, 
    {
      "op": "elemwise_mul", 
      "name": "_mul145", 
      "inputs": [[980, 0, 0], [981, 0, 0]]
    }, 
    {
      "op": "elemwise_add", 
      "name": "_plus97", 
      "inputs": [[979, 0, 0], [982, 0, 0]]
    }, 
    {
      "op": "Activation", 
      "name": "activation248", 
      "attrs": {"act_type": "tanh"}, 
      "inputs": [[983, 0, 0]]
    }, 
    {
      "op": "elemwise_mul", 
      "name": "_mul146", 
      "inputs": [[977, 0, 0], [984, 0, 0]]
    }, 
    {
      "op": "Concat", 
      "name": "concat31", 
      "attrs": {"num_args": "2"}, 
      "inputs": [[985, 0, 0], [777, 0, 0]]
    }, 
    {
      "op": "FullyConnected", 
      "name": "t9_l2_i2h", 
      "attrs": {"num_hidden": "400"}, 
      "inputs": [[478, 0, 0], [323, 0, 0], [324, 0, 0]]
    }, 
    {
      "op": "FullyConnected", 
      "name": "t9_l2_h2h", 
      "attrs": {"num_hidden": "400"}, 
      "inputs": [[985, 0, 0], [327, 0, 0], [328, 0, 0]]
    }, 
    {
      "op": "elemwise_add", 
      "name": "_plus98", 
      "inputs": [[987, 0, 0], [988, 0, 0]]
    }, 
    {
      "op": "SliceChannel", 
      "name": "t9_l2_slice", 
      "attrs": {"num_outputs": "4"}, 
      "inputs": [[989, 0, 0]]
    }, 
    {
      "op": "Activation", 
      "name": "activation252", 
      "attrs": {"act_type": "sigmoid"}, 
      "inputs": [[990, 3, 0]]
    }, 
    {
      "op": "Activation", 
      "name": "activation251", 
      "attrs": {"act_type": "sigmoid"}, 
      "inputs": [[990, 2, 0]]
    }, 
    {
      "op": "elemwise_mul", 
      "name": "_mul147", 
      "inputs": [[992, 0, 0], [983, 0, 0]]
    }, 
    {
      "op": "Activation", 
      "name": "activation249", 
      "attrs": {"act_type": "sigmoid"}, 
      "inputs": [[990, 0, 0]]
    }, 
    {
      "op": "Activation", 
      "name": "activation250", 
      "attrs": {"act_type": "tanh"}, 
      "inputs": [[990, 1, 0]]
    }, 
    {
      "op": "elemwise_mul", 
      "name": "_mul148", 
      "inputs": [[994, 0, 0], [995, 0, 0]]
    }, 
    {
      "op": "elemwise_add", 
      "name": "_plus99", 
      "inputs": [[993, 0, 0], [996, 0, 0]]
    }, 
    {
      "op": "Activation", 
      "name": "activation253", 
      "attrs": {"act_type": "tanh"}, 
      "inputs": [[997, 0, 0]]
    }, 
    {
      "op": "elemwise_mul", 
      "name": "_mul149", 
      "inputs": [[991, 0, 0], [998, 0, 0]]
    }, 
    {
      "op": "Concat", 
      "name": "concat30", 
      "attrs": {"num_args": "2"}, 
      "inputs": [[999, 0, 0], [765, 0, 0]]
    }, 
    {
      "op": "FullyConnected", 
      "name": "t10_l2_i2h", 
      "attrs": {"num_hidden": "400"}, 
      "inputs": [[493, 0, 0], [323, 0, 0], [324, 0, 0]]
    }, 
    {
      "op": "FullyConnected", 
      "name": "t10_l2_h2h", 
      "attrs": {"num_hidden": "400"}, 
      "inputs": [[999, 0, 0], [327, 0, 0], [328, 0, 0]]
    }, 
    {
      "op": "elemwise_add", 
      "name": "_plus100", 
      "inputs": [[1001, 0, 0], [1002, 0, 0]]
    }, 
    {
      "op": "SliceChannel", 
      "name": "t10_l2_slice", 
      "attrs": {"num_outputs": "4"}, 
      "inputs": [[1003, 0, 0]]
    }, 
    {
      "op": "Activation", 
      "name": "activation257", 
      "attrs": {"act_type": "sigmoid"}, 
      "inputs": [[1004, 3, 0]]
    }, 
    {
      "op": "Activation", 
      "name": "activation256", 
      "attrs": {"act_type": "sigmoid"}, 
      "inputs": [[1004, 2, 0]]
    }, 
    {
      "op": "elemwise_mul", 
      "name": "_mul150", 
      "inputs": [[1006, 0, 0], [997, 0, 0]]
    }, 
    {
      "op": "Activation", 
      "name": "activation254", 
      "attrs": {"act_type": "sigmoid"}, 
      "inputs": [[1004, 0, 0]]
    }, 
    {
      "op": "Activation", 
      "name": "activation255", 
      "attrs": {"act_type": "tanh"}, 
      "inputs": [[1004, 1, 0]]
    }, 
    {
      "op": "elemwise_mul", 
      "name": "_mul151", 
      "inputs": [[1008, 0, 0], [1009, 0, 0]]
    }, 
    {
      "op": "elemwise_add", 
      "name": "_plus101", 
      "inputs": [[1007, 0, 0], [1010, 0, 0]]
    }, 
    {
      "op": "Activation", 
      "name": "activation258", 
      "attrs": {"act_type": "tanh"}, 
      "inputs": [[1011, 0, 0]]
    }, 
    {
      "op": "elemwise_mul", 
      "name": "_mul152", 
      "inputs": [[1005, 0, 0], [1012, 0, 0]]
    }, 
    {
      "op": "Concat", 
      "name": "concat29", 
      "attrs": {"num_args": "2"}, 
      "inputs": [[1013, 0, 0], [753, 0, 0]]
    }, 
    {
      "op": "FullyConnected", 
      "name": "t11_l2_i2h", 
      "attrs": {"num_hidden": "400"}, 
      "inputs": [[508, 0, 0], [323, 0, 0], [324, 0, 0]]
    }, 
    {
      "op": "FullyConnected", 
      "name": "t11_l2_h2h", 
      "attrs": {"num_hidden": "400"}, 
      "inputs": [[1013, 0, 0], [327, 0, 0], [328, 0, 0]]
    }, 
    {
      "op": "elemwise_add", 
      "name": "_plus102", 
      "inputs": [[1015, 0, 0], [1016, 0, 0]]
    }, 
    {
      "op": "SliceChannel", 
      "name": "t11_l2_slice", 
      "attrs": {"num_outputs": "4"}, 
      "inputs": [[1017, 0, 0]]
    }, 
    {
      "op": "Activation", 
      "name": "activation262", 
      "attrs": {"act_type": "sigmoid"}, 
      "inputs": [[1018, 3, 0]]
    }, 
    {
      "op": "Activation", 
      "name": "activation261", 
      "attrs": {"act_type": "sigmoid"}, 
      "inputs": [[1018, 2, 0]]
    }, 
    {
      "op": "elemwise_mul", 
      "name": "_mul153", 
      "inputs": [[1020, 0, 0], [1011, 0, 0]]
    }, 
    {
      "op": "Activation", 
      "name": "activation259", 
      "attrs": {"act_type": "sigmoid"}, 
      "inputs": [[1018, 0, 0]]
    }, 
    {
      "op": "Activation", 
      "name": "activation260", 
      "attrs": {"act_type": "tanh"}, 
      "inputs": [[1018, 1, 0]]
    }, 
    {
      "op": "elemwise_mul", 
      "name": "_mul154", 
      "inputs": [[1022, 0, 0], [1023, 0, 0]]
    }, 
    {
      "op": "elemwise_add", 
      "name": "_plus103", 
      "inputs": [[1021, 0, 0], [1024, 0, 0]]
    }, 
    {
      "op": "Activation", 
      "name": "activation263", 
      "attrs": {"act_type": "tanh"}, 
      "inputs": [[1025, 0, 0]]
    }, 
    {
      "op": "elemwise_mul", 
      "name": "_mul155", 
      "inputs": [[1019, 0, 0], [1026, 0, 0]]
    }, 
    {
      "op": "Concat", 
      "name": "concat28", 
      "attrs": {"num_args": "2"}, 
      "inputs": [[1027, 0, 0], [741, 0, 0]]
    }, 
    {
      "op": "FullyConnected", 
      "name": "t12_l2_i2h", 
      "attrs": {"num_hidden": "400"}, 
      "inputs": [[523, 0, 0], [323, 0, 0], [324, 0, 0]]
    }, 
    {
      "op": "FullyConnected", 
      "name": "t12_l2_h2h", 
      "attrs": {"num_hidden": "400"}, 
      "inputs": [[1027, 0, 0], [327, 0, 0], [328, 0, 0]]
    }, 
    {
      "op": "elemwise_add", 
      "name": "_plus104", 
      "inputs": [[1029, 0, 0], [1030, 0, 0]]
    }, 
    {
      "op": "SliceChannel", 
      "name": "t12_l2_slice", 
      "attrs": {"num_outputs": "4"}, 
      "inputs": [[1031, 0, 0]]
    }, 
    {
      "op": "Activation", 
      "name": "activation267", 
      "attrs": {"act_type": "sigmoid"}, 
      "inputs": [[1032, 3, 0]]
    }, 
    {
      "op": "Activation", 
      "name": "activation266", 
      "attrs": {"act_type": "sigmoid"}, 
      "inputs": [[1032, 2, 0]]
    }, 
    {
      "op": "elemwise_mul", 
      "name": "_mul156", 
      "inputs": [[1034, 0, 0], [1025, 0, 0]]
    }, 
    {
      "op": "Activation", 
      "name": "activation264", 
      "attrs": {"act_type": "sigmoid"}, 
      "inputs": [[1032, 0, 0]]
    }, 
    {
      "op": "Activation", 
      "name": "activation265", 
      "attrs": {"act_type": "tanh"}, 
      "inputs": [[1032, 1, 0]]
    }, 
    {
      "op": "elemwise_mul", 
      "name": "_mul157", 
      "inputs": [[1036, 0, 0], [1037, 0, 0]]
    }, 
    {
      "op": "elemwise_add", 
      "name": "_plus105", 
      "inputs": [[1035, 0, 0], [1038, 0, 0]]
    }, 
    {
      "op": "Activation", 
      "name": "activation268", 
      "attrs": {"act_type": "tanh"}, 
      "inputs": [[1039, 0, 0]]
    }, 
    {
      "op": "elemwise_mul", 
      "name": "_mul158", 
      "inputs": [[1033, 0, 0], [1040, 0, 0]]
    }, 
    {
      "op": "Concat", 
      "name": "concat27", 
      "attrs": {"num_args": "2"}, 
      "inputs": [[1041, 0, 0], [729, 0, 0]]
    }, 
    {
      "op": "FullyConnected", 
      "name": "t13_l2_i2h", 
      "attrs": {"num_hidden": "400"}, 
      "inputs": [[538, 0, 0], [323, 0, 0], [324, 0, 0]]
    }, 
    {
      "op": "FullyConnected", 
      "name": "t13_l2_h2h", 
      "attrs": {"num_hidden": "400"}, 
      "inputs": [[1041, 0, 0], [327, 0, 0], [328, 0, 0]]
    }, 
    {
      "op": "elemwise_add", 
      "name": "_plus106", 
      "inputs": [[1043, 0, 0], [1044, 0, 0]]
    }, 
    {
      "op": "SliceChannel", 
      "name": "t13_l2_slice", 
      "attrs": {"num_outputs": "4"}, 
      "inputs": [[1045, 0, 0]]
    }, 
    {
      "op": "Activation", 
      "name": "activation272", 
      "attrs": {"act_type": "sigmoid"}, 
      "inputs": [[1046, 3, 0]]
    }, 
    {
      "op": "Activation", 
      "name": "activation271", 
      "attrs": {"act_type": "sigmoid"}, 
      "inputs": [[1046, 2, 0]]
    }, 
    {
      "op": "elemwise_mul", 
      "name": "_mul159", 
      "inputs": [[1048, 0, 0], [1039, 0, 0]]
    }, 
    {
      "op": "Activation", 
      "name": "activation269", 
      "attrs": {"act_type": "sigmoid"}, 
      "inputs": [[1046, 0, 0]]
    }, 
    {
      "op": "Activation", 
      "name": "activation270", 
      "attrs": {"act_type": "tanh"}, 
      "inputs": [[1046, 1, 0]]
    }, 
    {
      "op": "elemwise_mul", 
      "name": "_mul160", 
      "inputs": [[1050, 0, 0], [1051, 0, 0]]
    }, 
    {
      "op": "elemwise_add", 
      "name": "_plus107", 
      "inputs": [[1049, 0, 0], [1052, 0, 0]]
    }, 
    {
      "op": "Activation", 
      "name": "activation273", 
      "attrs": {"act_type": "tanh"}, 
      "inputs": [[1053, 0, 0]]
    }, 
    {
      "op": "elemwise_mul", 
      "name": "_mul161", 
      "inputs": [[1047, 0, 0], [1054, 0, 0]]
    }, 
    {
      "op": "Concat", 
      "name": "concat26", 
      "attrs": {"num_args": "2"}, 
      "inputs": [[1055, 0, 0], [717, 0, 0]]
    }, 
    {
      "op": "FullyConnected", 
      "name": "t14_l2_i2h", 
      "attrs": {"num_hidden": "400"}, 
      "inputs": [[553, 0, 0], [323, 0, 0], [324, 0, 0]]
    }, 
    {
      "op": "FullyConnected", 
      "name": "t14_l2_h2h", 
      "attrs": {"num_hidden": "400"}, 
      "inputs": [[1055, 0, 0], [327, 0, 0], [328, 0, 0]]
    }, 
    {
      "op": "elemwise_add", 
      "name": "_plus108", 
      "inputs": [[1057, 0, 0], [1058, 0, 0]]
    }, 
    {
      "op": "SliceChannel", 
      "name": "t14_l2_slice", 
      "attrs": {"num_outputs": "4"}, 
      "inputs": [[1059, 0, 0]]
    }, 
    {
      "op": "Activation", 
      "name": "activation277", 
      "attrs": {"act_type": "sigmoid"}, 
      "inputs": [[1060, 3, 0]]
    }, 
    {
      "op": "Activation", 
      "name": "activation276", 
      "attrs": {"act_type": "sigmoid"}, 
      "inputs": [[1060, 2, 0]]
    }, 
    {
      "op": "elemwise_mul", 
      "name": "_mul162", 
      "inputs": [[1062, 0, 0], [1053, 0, 0]]
    }, 
    {
      "op": "Activation", 
      "name": "activation274", 
      "attrs": {"act_type": "sigmoid"}, 
      "inputs": [[1060, 0, 0]]
    }, 
    {
      "op": "Activation", 
      "name": "activation275", 
      "attrs": {"act_type": "tanh"}, 
      "inputs": [[1060, 1, 0]]
    }, 
    {
      "op": "elemwise_mul", 
      "name": "_mul163", 
      "inputs": [[1064, 0, 0], [1065, 0, 0]]
    }, 
    {
      "op": "elemwise_add", 
      "name": "_plus109", 
      "inputs": [[1063, 0, 0], [1066, 0, 0]]
    }, 
    {
      "op": "Activation", 
      "name": "activation278", 
      "attrs": {"act_type": "tanh"}, 
      "inputs": [[1067, 0, 0]]
    }, 
    {
      "op": "elemwise_mul", 
      "name": "_mul164", 
      "inputs": [[1061, 0, 0], [1068, 0, 0]]
    }, 
    {
      "op": "Concat", 
      "name": "concat25", 
      "attrs": {"num_args": "2"}, 
      "inputs": [[1069, 0, 0], [705, 0, 0]]
    }, 
    {
      "op": "FullyConnected", 
      "name": "t15_l2_i2h", 
      "attrs": {"num_hidden": "400"}, 
      "inputs": [[568, 0, 0], [323, 0, 0], [324, 0, 0]]
    }, 
    {
      "op": "FullyConnected", 
      "name": "t15_l2_h2h", 
      "attrs": {"num_hidden": "400"}, 
      "inputs": [[1069, 0, 0], [327, 0, 0], [328, 0, 0]]
    }, 
    {
      "op": "elemwise_add", 
      "name": "_plus110", 
      "inputs": [[1071, 0, 0], [1072, 0, 0]]
    }, 
    {
      "op": "SliceChannel", 
      "name": "t15_l2_slice", 
      "attrs": {"num_outputs": "4"}, 
      "inputs": [[1073, 0, 0]]
    }, 
    {
      "op": "Activation", 
      "name": "activation282", 
      "attrs": {"act_type": "sigmoid"}, 
      "inputs": [[1074, 3, 0]]
    }, 
    {
      "op": "Activation", 
      "name": "activation281", 
      "attrs": {"act_type": "sigmoid"}, 
      "inputs": [[1074, 2, 0]]
    }, 
    {
      "op": "elemwise_mul", 
      "name": "_mul165", 
      "inputs": [[1076, 0, 0], [1067, 0, 0]]
    }, 
    {
      "op": "Activation", 
      "name": "activation279", 
      "attrs": {"act_type": "sigmoid"}, 
      "inputs": [[1074, 0, 0]]
    }, 
    {
      "op": "Activation", 
      "name": "activation280", 
      "attrs": {"act_type": "tanh"}, 
      "inputs": [[1074, 1, 0]]
    }, 
    {
      "op": "elemwise_mul", 
      "name": "_mul166", 
      "inputs": [[1078, 0, 0], [1079, 0, 0]]
    }, 
    {
      "op": "elemwise_add", 
      "name": "_plus111", 
      "inputs": [[1077, 0, 0], [1080, 0, 0]]
    }, 
    {
      "op": "Activation", 
      "name": "activation283", 
      "attrs": {"act_type": "tanh"}, 
      "inputs": [[1081, 0, 0]]
    }, 
    {
      "op": "elemwise_mul", 
      "name": "_mul167", 
      "inputs": [[1075, 0, 0], [1082, 0, 0]]
    }, 
    {
      "op": "Concat", 
      "name": "concat24", 
      "attrs": {"num_args": "2"}, 
      "inputs": [[1083, 0, 0], [693, 0, 0]]
    }, 
    {
      "op": "FullyConnected", 
      "name": "t16_l2_i2h", 
      "attrs": {"num_hidden": "400"}, 
      "inputs": [[583, 0, 0], [323, 0, 0], [324, 0, 0]]
    }, 
    {
      "op": "FullyConnected", 
      "name": "t16_l2_h2h", 
      "attrs": {"num_hidden": "400"}, 
      "inputs": [[1083, 0, 0], [327, 0, 0], [328, 0, 0]]
    }, 
    {
      "op": "elemwise_add", 
      "name": "_plus112", 
      "inputs": [[1085, 0, 0], [1086, 0, 0]]
    }, 
    {
      "op": "SliceChannel", 
      "name": "t16_l2_slice", 
      "attrs": {"num_outputs": "4"}, 
      "inputs": [[1087, 0, 0]]
    }, 
    {
      "op": "Activation", 
      "name": "activation287", 
      "attrs": {"act_type": "sigmoid"}, 
      "inputs": [[1088, 3, 0]]
    }, 
    {
      "op": "Activation", 
      "name": "activation286", 
      "attrs": {"act_type": "sigmoid"}, 
      "inputs": [[1088, 2, 0]]
    }, 
    {
      "op": "elemwise_mul", 
      "name": "_mul168", 
      "inputs": [[1090, 0, 0], [1081, 0, 0]]
    }, 
    {
      "op": "Activation", 
      "name": "activation284", 
      "attrs": {"act_type": "sigmoid"}, 
      "inputs": [[1088, 0, 0]]
    }, 
    {
      "op": "Activation", 
      "name": "activation285", 
      "attrs": {"act_type": "tanh"}, 
      "inputs": [[1088, 1, 0]]
    }, 
    {
      "op": "elemwise_mul", 
      "name": "_mul169", 
      "inputs": [[1092, 0, 0], [1093, 0, 0]]
    }, 
    {
      "op": "elemwise_add", 
      "name": "_plus113", 
      "inputs": [[1091, 0, 0], [1094, 0, 0]]
    }, 
    {
      "op": "Activation", 
      "name": "activation288", 
      "attrs": {"act_type": "tanh"}, 
      "inputs": [[1095, 0, 0]]
    }, 
    {
      "op": "elemwise_mul", 
      "name": "_mul170", 
      "inputs": [[1089, 0, 0], [1096, 0, 0]]
    }, 
    {
      "op": "Concat", 
      "name": "concat23", 
      "attrs": {"num_args": "2"}, 
      "inputs": [[1097, 0, 0], [681, 0, 0]]
    }, 
    {
      "op": "FullyConnected", 
      "name": "t17_l2_i2h", 
      "attrs": {"num_hidden": "400"}, 
      "inputs": [[598, 0, 0], [323, 0, 0], [324, 0, 0]]
    }, 
    {
      "op": "FullyConnected", 
      "name": "t17_l2_h2h", 
      "attrs": {"num_hidden": "400"}, 
      "inputs": [[1097, 0, 0], [327, 0, 0], [328, 0, 0]]
    }, 
    {
      "op": "elemwise_add", 
      "name": "_plus114", 
      "inputs": [[1099, 0, 0], [1100, 0, 0]]
    }, 
    {
      "op": "SliceChannel", 
      "name": "t17_l2_slice", 
      "attrs": {"num_outputs": "4"}, 
      "inputs": [[1101, 0, 0]]
    }, 
    {
      "op": "Activation", 
      "name": "activation292", 
      "attrs": {"act_type": "sigmoid"}, 
      "inputs": [[1102, 3, 0]]
    }, 
    {
      "op": "Activation", 
      "name": "activation291", 
      "attrs": {"act_type": "sigmoid"}, 
      "inputs": [[1102, 2, 0]]
    }, 
    {
      "op": "elemwise_mul", 
      "name": "_mul171", 
      "inputs": [[1104, 0, 0], [1095, 0, 0]]
    }, 
    {
      "op": "Activation", 
      "name": "activation289", 
      "attrs": {"act_type": "sigmoid"}, 
      "inputs": [[1102, 0, 0]]
    }, 
    {
      "op": "Activation", 
      "name": "activation290", 
      "attrs": {"act_type": "tanh"}, 
      "inputs": [[1102, 1, 0]]
    }, 
    {
      "op": "elemwise_mul", 
      "name": "_mul172", 
      "inputs": [[1106, 0, 0], [1107, 0, 0]]
    }, 
    {
      "op": "elemwise_add", 
      "name": "_plus115", 
      "inputs": [[1105, 0, 0], [1108, 0, 0]]
    }, 
    {
      "op": "Activation", 
      "name": "activation293", 
      "attrs": {"act_type": "tanh"}, 
      "inputs": [[1109, 0, 0]]
    }, 
    {
      "op": "elemwise_mul", 
      "name": "_mul173", 
      "inputs": [[1103, 0, 0], [1110, 0, 0]]
    }, 
    {
      "op": "Concat", 
      "name": "concat22", 
      "attrs": {"num_args": "2"}, 
      "inputs": [[1111, 0, 0], [669, 0, 0]]
    }, 
    {
      "op": "FullyConnected", 
      "name": "t18_l2_i2h", 
      "attrs": {"num_hidden": "400"}, 
      "inputs": [[613, 0, 0], [323, 0, 0], [324, 0, 0]]
    }, 
    {
      "op": "FullyConnected", 
      "name": "t18_l2_h2h", 
      "attrs": {"num_hidden": "400"}, 
      "inputs": [[1111, 0, 0], [327, 0, 0], [328, 0, 0]]
    }, 
    {
      "op": "elemwise_add", 
      "name": "_plus116", 
      "inputs": [[1113, 0, 0], [1114, 0, 0]]
    }, 
    {
      "op": "SliceChannel", 
      "name": "t18_l2_slice", 
      "attrs": {"num_outputs": "4"}, 
      "inputs": [[1115, 0, 0]]
    }, 
    {
      "op": "Activation", 
      "name": "activation297", 
      "attrs": {"act_type": "sigmoid"}, 
      "inputs": [[1116, 3, 0]]
    }, 
    {
      "op": "Activation", 
      "name": "activation296", 
      "attrs": {"act_type": "sigmoid"}, 
      "inputs": [[1116, 2, 0]]
    }, 
    {
      "op": "elemwise_mul", 
      "name": "_mul174", 
      "inputs": [[1118, 0, 0], [1109, 0, 0]]
    }, 
    {
      "op": "Activation", 
      "name": "activation294", 
      "attrs": {"act_type": "sigmoid"}, 
      "inputs": [[1116, 0, 0]]
    }, 
    {
      "op": "Activation", 
      "name": "activation295", 
      "attrs": {"act_type": "tanh"}, 
      "inputs": [[1116, 1, 0]]
    }, 
    {
      "op": "elemwise_mul", 
      "name": "_mul175", 
      "inputs": [[1120, 0, 0], [1121, 0, 0]]
    }, 
    {
      "op": "elemwise_add", 
      "name": "_plus117", 
      "inputs": [[1119, 0, 0], [1122, 0, 0]]
    }, 
    {
      "op": "Activation", 
      "name": "activation298", 
      "attrs": {"act_type": "tanh"}, 
      "inputs": [[1123, 0, 0]]
    }, 
    {
      "op": "elemwise_mul", 
      "name": "_mul176", 
      "inputs": [[1117, 0, 0], [1124, 0, 0]]
    }, 
    {
      "op": "Concat", 
      "name": "concat21", 
      "attrs": {"num_args": "2"}, 
      "inputs": [[1125, 0, 0], [657, 0, 0]]
    }, 
    {
      "op": "FullyConnected", 
      "name": "t19_l2_i2h", 
      "attrs": {"num_hidden": "400"}, 
      "inputs": [[628, 0, 0], [323, 0, 0], [324, 0, 0]]
    }, 
    {
      "op": "FullyConnected", 
      "name": "t19_l2_h2h", 
      "attrs": {"num_hidden": "400"}, 
      "inputs": [[1125, 0, 0], [327, 0, 0], [328, 0, 0]]
    }, 
    {
      "op": "elemwise_add", 
      "name": "_plus118", 
      "inputs": [[1127, 0, 0], [1128, 0, 0]]
    }, 
    {
      "op": "SliceChannel", 
      "name": "t19_l2_slice", 
      "attrs": {"num_outputs": "4"}, 
      "inputs": [[1129, 0, 0]]
    }, 
    {
      "op": "Activation", 
      "name": "activation302", 
      "attrs": {"act_type": "sigmoid"}, 
      "inputs": [[1130, 3, 0]]
    }, 
    {
      "op": "Activation", 
      "name": "activation301", 
      "attrs": {"act_type": "sigmoid"}, 
      "inputs": [[1130, 2, 0]]
    }, 
    {
      "op": "elemwise_mul", 
      "name": "_mul177", 
      "inputs": [[1132, 0, 0], [1123, 0, 0]]
    }, 
    {
      "op": "Activation", 
      "name": "activation299", 
      "attrs": {"act_type": "sigmoid"}, 
      "inputs": [[1130, 0, 0]]
    }, 
    {
      "op": "Activation", 
      "name": "activation300", 
      "attrs": {"act_type": "tanh"}, 
      "inputs": [[1130, 1, 0]]
    }, 
    {
      "op": "elemwise_mul", 
      "name": "_mul178", 
      "inputs": [[1134, 0, 0], [1135, 0, 0]]
    }, 
    {
      "op": "elemwise_add", 
      "name": "_plus119", 
      "inputs": [[1133, 0, 0], [1136, 0, 0]]
    }, 
    {
      "op": "Activation", 
      "name": "activation303", 
      "attrs": {"act_type": "tanh"}, 
      "inputs": [[1137, 0, 0]]
    }, 
    {
      "op": "elemwise_mul", 
      "name": "_mul179", 
      "inputs": [[1131, 0, 0], [1138, 0, 0]]
    }, 
    {
      "op": "Concat", 
      "name": "concat20", 
      "attrs": {"num_args": "2"}, 
      "inputs": [[1139, 0, 0], [645, 0, 0]]
    }, 
    {
      "op": "Concat", 
      "name": "concat40", 
      "attrs": {
        "dim": "0", 
        "num_args": "20"
      }, 
      "inputs": [
        [874, 0, 0], 
        [888, 0, 0], 
        [902, 0, 0], 
        [916, 0, 0], 
        [930, 0, 0], 
        [944, 0, 0], 
        [958, 0, 0], 
        [972, 0, 0], 
        [986, 0, 0], 
        [1000, 0, 0], 
        [1014, 0, 0], 
        [1028, 0, 0], 
        [1042, 0, 0], 
        [1056, 0, 0], 
        [1070, 0, 0], 
        [1084, 0, 0], 
        [1098, 0, 0], 
        [1112, 0, 0], 
        [1126, 0, 0], 
        [1140, 0, 0]
      ]
    }, 
    {
      "op": "null", 
      "name": "pred_fc_weight", 
      "attrs": {"num_hidden": "27"}, 
      "inputs": []
    }, 
    {
      "op": "null", 
      "name": "pred_fc_bias", 
      "attrs": {"num_hidden": "27"}, 
      "inputs": []
    }, 
    {
      "op": "FullyConnected", 
      "name": "pred_fc", 
      "attrs": {"num_hidden": "27"}, 
      "inputs": [[1141, 0, 0], [1142, 0, 0], [1143, 0, 0]]
    }, 
    {
      "op": "SoftmaxActivation", 
      "name": "softmaxactivation0", 
      "inputs": [[1144, 0, 0]]
    }, 
    {
      "op": "MakeLoss", 
      "name": "makeloss1", 
      "inputs": [[1145, 0, 0]]
    }, 
    {
      "op": "BlockGrad", 
      "name": "blockgrad0", 
      "inputs": [[1146, 0, 0]]
    }, 
    {
      "op": "Reshape", 
      "name": "reshape0", 
      "attrs": {"shape": "(-4, 20, -1, 0)"}, 
      "inputs": [[1144, 0, 0]]
    }, 
    {
      "op": "null", 
      "name": "label", 
      "inputs": []
    }, 
    {
      "op": "_contrib_CTCLoss", 
      "name": "ctc_loss0", 
      "inputs": [[1148, 0, 0], [1149, 0, 0]]
    }, 
    {
      "op": "MakeLoss", 
      "name": "makeloss0", 
      "inputs": [[1150, 0, 0]]
    }
  ], 
  "arg_nodes": [
    0, 
    1, 
    2, 
    4, 
    5, 
    6, 
    7, 
    12, 
    13, 
    17, 
    18, 
    20, 
    21, 
    22, 
    23, 
    28, 
    29, 
    33, 
    34, 
    37, 
    38, 
    40, 
    41, 
    42, 
    48, 
    56, 
    57, 
    78, 
    79, 
    80, 
    86, 
    323, 
    324, 
    326, 
    327, 
    328, 
    334, 
    342, 
    343, 
    630, 
    631, 
    632, 
    638, 
    1142, 
    1143, 
    1149
  ], 
  "node_row_ptr": [
    0, 
    1, 
    2, 
    3, 
    4, 
    5, 
    6, 
    7, 
    8, 
    11, 
    12, 
    14, 
    15, 
    16, 
    17, 
    18, 
    19, 
    20, 
    21, 
    22, 
    23, 
    24, 
    25, 
    26, 
    27, 
    30, 
    31, 
    33, 
    34, 
    35, 
    36, 
    37, 
    38, 
    39, 
    40, 
    41, 
    42, 
    62, 
    63, 
    64, 
    65, 
    66, 
    67, 
    68, 
    69, 
    70, 
    74, 
    75, 
    76, 
    77, 
    78, 
    79, 
    80, 
    81, 
    82, 
    83, 
    84, 
    85, 
    86, 
    87, 
    88, 
    89, 
    90, 
    91, 
    92, 
    93, 
    94, 
    95, 
    96, 
    97, 
    98, 
    99, 
    100, 
    101, 
    102, 
    103, 
    104, 
    105, 
    106, 
    107, 
    108, 
    109, 
    110, 
    111, 
    115, 
    116, 
    117, 
    118, 
    119, 
    120, 
    121, 
    122, 
    123, 
    124, 
    125, 
    126, 
    127, 
    131, 
    132, 
    133, 
    134, 
    135, 
    136, 
    137, 
    138, 
    139, 
    140, 
    141, 
    142, 
    146, 
    147, 
    148, 
    149, 
    150, 
    151, 
    152, 
    153, 
    154, 
    155, 
    156, 
    157, 
    161, 
    162, 
    163, 
    164, 
    165, 
    166, 
    167, 
    168, 
    169, 
    170, 
    171, 
    172, 
    176, 
    177, 
    178, 
    179, 
    180, 
    181, 
    182, 
    183, 
    184, 
    185, 
    186, 
    187, 
    191, 
    192, 
    193, 
    194, 
    195, 
    196, 
    197, 
    198, 
    199, 
    200, 
    201, 
    202, 
    206, 
    207, 
    208, 
    209, 
    210, 
    211, 
    212, 
    213, 
    214, 
    215, 
    216, 
    217, 
    221, 
    222, 
    223, 
    224, 
    225, 
    226, 
    227, 
    228, 
    229, 
    230, 
    231, 
    232, 
    236, 
    237, 
    238, 
    239, 
    240, 
    241, 
    242, 
    243, 
    244, 
    245, 
    246, 
    247, 
    251, 
    252, 
    253, 
    254, 
    255, 
    256, 
    257, 
    258, 
    259, 
    260, 
    261, 
    262, 
    266, 
    267, 
    268, 
    269, 
    270, 
    271, 
    272, 
    273, 
    274, 
    275, 
    276, 
    277, 
    281, 
    282, 
    283, 
    284, 
    285, 
    286, 
    287, 
    288, 
    289, 
    290, 
    291, 
    292, 
    296, 
    297, 
    298, 
    299, 
    300, 
    301, 
    302, 
    303, 
    304, 
    305, 
    306, 
    307, 
    311, 
    312, 
    313, 
    314, 
    315, 
    316, 
    317, 
    318, 
    319, 
    320, 
    321, 
    322, 
    326, 
    327, 
    328, 
    329, 
    330, 
    331, 
    332, 
    333, 
    334, 
    335, 
    336, 
    337, 
    341, 
    342, 
    343, 
    344, 
    345, 
    346, 
    347, 
    348, 
    349, 
    350, 
    351, 
    352, 
    356, 
    357, 
    358, 
    359, 
    360, 
    361, 
    362, 
    363, 
    364, 
    365, 
    366, 
    367, 
    371, 
    372, 
    373, 
    374, 
    375, 
    376, 
    377, 
    378, 
    379, 
    380, 
    381, 
    382, 
    386, 
    387, 
    388, 
    389, 
    390, 
    391, 
    392, 
    393, 
    394, 
    395, 
    396, 
    397, 
    401, 
    402, 
    403, 
    404, 
    405, 
    406, 
    407, 
    408, 
    409, 
    410, 
    411, 
    412, 
    413, 
    414, 
    415, 
    416, 
    417, 
    418, 
    419, 
    423, 
    424, 
    425, 
    426, 
    427, 
    428, 
    429, 
    430, 
    431, 
    432, 
    433, 
    434, 
    435, 
    436, 
    437, 
    438, 
    439, 
    443, 
    444, 
    445, 
    446, 
    447, 
    448, 
    449, 
    450, 
    451, 
    452, 
    453, 
    454, 
    455, 
    456, 
    457, 
    461, 
    462, 
    463, 
    464, 
    465, 
    466, 
    467, 
    468, 
    469, 
    470, 
    471, 
    472, 
    473, 
    474, 
    475, 
    479, 
    480, 
    481, 
    482, 
    483, 
    484, 
    485, 
    486, 
    487, 
    488, 
    489, 
    490, 
    491, 
    492, 
    493, 
    497, 
    498, 
    499, 
    500, 
    501, 
    502, 
    503, 
    504, 
    505, 
    506, 
    507, 
    508, 
    509, 
    510, 
    511, 
    515, 
    516, 
    517, 
    518, 
    519, 
    520, 
    521, 
    522, 
    523, 
    524, 
    525, 
    526, 
    527, 
    528, 
    529, 
    533, 
    534, 
    535, 
    536, 
    537, 
    538, 
    539, 
    540, 
    541, 
    542, 
    543, 
    544, 
    545, 
    546, 
    547, 
    551, 
    552, 
    553, 
    554, 
    555, 
    556, 
    557, 
    558, 
    559, 
    560, 
    561, 
    562, 
    563, 
    564, 
    565, 
    569, 
    570, 
    571, 
    572, 
    573, 
    574, 
    575, 
    576, 
    577, 
    578, 
    579, 
    580, 
    581, 
    582, 
    583, 
    587, 
    588, 
    589, 
    590, 
    591, 
    592, 
    593, 
    594, 
    595, 
    596, 
    597, 
    598, 
    599, 
    600, 
    601, 
    605, 
    606, 
    607, 
    608, 
    609, 
    610, 
    611, 
    612, 
    613, 
    614, 
    615, 
    616, 
    617, 
    618, 
    619, 
    623, 
    624, 
    625, 
    626, 
    627, 
    628, 
    629, 
    630, 
    631, 
    632, 
    633, 
    634, 
    635, 
    636, 
    637, 
    641, 
    642, 
    643, 
    644, 
    645, 
    646, 
    647, 
    648, 
    649, 
    650, 
    651, 
    652, 
    653, 
    654, 
    655, 
    659, 
    660, 
    661, 
    662, 
    663, 
    664, 
    665, 
    666, 
    667, 
    668, 
    669, 
    670, 
    671, 
    672, 
    673, 
    677, 
    678, 
    679, 
    680, 
    681, 
    682, 
    683, 
    684, 
    685, 
    686, 
    687, 
    688, 
    689, 
    690, 
    691, 
    695, 
    696, 
    697, 
    698, 
    699, 
    700, 
    701, 
    702, 
    703, 
    704, 
    705, 
    706, 
    707, 
    708, 
    709, 
    713, 
    714, 
    715, 
    716, 
    717, 
    718, 
    719, 
    720, 
    721, 
    722, 
    723, 
    724, 
    725, 
    726, 
    727, 
    731, 
    732, 
    733, 
    734, 
    735, 
    736, 
    737, 
    738, 
    739, 
    740, 
    741, 
    742, 
    743, 
    744, 
    745, 
    749, 
    750, 
    751, 
    752, 
    753, 
    754, 
    755, 
    756, 
    757, 
    758, 
    759, 
    760, 
    761, 
    762, 
    763, 
    767, 
    768, 
    769, 
    770, 
    771, 
    772, 
    773, 
    774, 
    775, 
    776, 
    777, 
    778, 
    779, 
    780, 
    781, 
    782, 
    783, 
    787, 
    788, 
    789, 
    790, 
    791, 
    792, 
    793, 
    794, 
    795, 
    796, 
    797, 
    798, 
    799, 
    803, 
    804, 
    805, 
    806, 
    807, 
    808, 
    809, 
    810, 
    811, 
    812, 
    813, 
    814, 
    818, 
    819, 
    820, 
    821, 
    822, 
    823, 
    824, 
    825, 
    826, 
    827, 
    828, 
    829, 
    833, 
    834, 
    835, 
    836, 
    837, 
    838, 
    839, 
    840, 
    841, 
    842, 
    843, 
    844, 
    848, 
    849, 
    850, 
    851, 
    852, 
    853, 
    854, 
    855, 
    856, 
    857, 
    858, 
    859, 
    863, 
    864, 
    865, 
    866, 
    867, 
    868, 
    869, 
    870, 
    871, 
    872, 
    873, 
    874, 
    878, 
    879, 
    880, 
    881, 
    882, 
    883, 
    884, 
    885, 
    886, 
    887, 
    888, 
    889, 
    893, 
    894, 
    895, 
    896, 
    897, 
    898, 
    899, 
    900, 
    901, 
    902, 
    903, 
    904, 
    908, 
    909, 
    910, 
    911, 
    912, 
    913, 
    914, 
    915, 
    916, 
    917, 
    918, 
    919, 
    923, 
    924, 
    925, 
    926, 
    927, 
    928, 
    929, 
    930, 
    931, 
    932, 
    933, 
    934, 
    938, 
    939, 
    940, 
    941, 
    942, 
    943, 
    944, 
    945, 
    946, 
    947, 
    948, 
    949, 
    953, 
    954, 
    955, 
    956, 
    957, 
    958, 
    959, 
    960, 
    961, 
    962, 
    963, 
    964, 
    968, 
    969, 
    970, 
    971, 
    972, 
    973, 
    974, 
    975, 
    976, 
    977, 
    978, 
    979, 
    983, 
    984, 
    985, 
    986, 
    987, 
    988, 
    989, 
    990, 
    991, 
    992, 
    993, 
    994, 
    998, 
    999, 
    1000, 
    1001, 
    1002, 
    1003, 
    1004, 
    1005, 
    1006, 
    1007, 
    1008, 
    1009, 
    1013, 
    1014, 
    1015, 
    1016, 
    1017, 
    1018, 
    1019, 
    1020, 
    1021, 
    1022, 
    1023, 
    1024, 
    1028, 
    1029, 
    1030, 
    1031, 
    1032, 
    1033, 
    1034, 
    1035, 
    1036, 
    1037, 
    1038, 
    1039, 
    1043, 
    1044, 
    1045, 
    1046, 
    1047, 
    1048, 
    1049, 
    1050, 
    1051, 
    1052, 
    1053, 
    1054, 
    1058, 
    1059, 
    1060, 
    1061, 
    1062, 
    1063, 
    1064, 
    1065, 
    1066, 
    1067, 
    1068, 
    1069, 
    1073, 
    1074, 
    1075, 
    1076, 
    1077, 
    1078, 
    1079, 
    1080, 
    1081, 
    1082, 
    1083, 
    1084, 
    1085, 
    1086, 
    1090, 
    1091, 
    1092, 
    1093, 
    1094, 
    1095, 
    1096, 
    1097, 
    1098, 
    1099, 
    1100, 
    1101, 
    1102, 
    1103, 
    1107, 
    1108, 
    1109, 
    1110, 
    1111, 
    1112, 
    1113, 
    1114, 
    1115, 
    1116, 
    1117, 
    1118, 
    1119, 
    1120, 
    1124, 
    1125, 
    1126, 
    1127, 
    1128, 
    1129, 
    1130, 
    1131, 
    1132, 
    1133, 
    1134, 
    1135, 
    1136, 
    1137, 
    1141, 
    1142, 
    1143, 
    1144, 
    1145, 
    1146, 
    1147, 
    1148, 
    1149, 
    1150, 
    1151, 
    1152, 
    1153, 
    1154, 
    1158, 
    1159, 
    1160, 
    1161, 
    1162, 
    1163, 
    1164, 
    1165, 
    1166, 
    1167, 
    1168, 
    1169, 
    1170, 
    1171, 
    1175, 
    1176, 
    1177, 
    1178, 
    1179, 
    1180, 
    1181, 
    1182, 
    1183, 
    1184, 
    1185, 
    1186, 
    1187, 
    1188, 
    1192, 
    1193, 
    1194, 
    1195, 
    1196, 
    1197, 
    1198, 
    1199, 
    1200, 
    1201, 
    1202, 
    1203, 
    1204, 
    1205, 
    1209, 
    1210, 
    1211, 
    1212, 
    1213, 
    1214, 
    1215, 
    1216, 
    1217, 
    1218, 
    1219, 
    1220, 
    1221, 
    1222, 
    1226, 
    1227, 
    1228, 
    1229, 
    1230, 
    1231, 
    1232, 
    1233, 
    1234, 
    1235, 
    1236, 
    1237, 
    1238, 
    1239, 
    1243, 
    1244, 
    1245, 
    1246, 
    1247, 
    1248, 
    1249, 
    1250, 
    1251, 
    1252, 
    1253, 
    1254, 
    1255, 
    1256, 
    1260, 
    1261, 
    1262, 
    1263, 
    1264, 
    1265, 
    1266, 
    1267, 
    1268, 
    1269, 
    1270, 
    1271, 
    1272, 
    1273, 
    1277, 
    1278, 
    1279, 
    1280, 
    1281, 
    1282, 
    1283, 
    1284, 
    1285, 
    1286, 
    1287, 
    1288, 
    1289, 
    1290, 
    1294, 
    1295, 
    1296, 
    1297, 
    1298, 
    1299, 
    1300, 
    1301, 
    1302, 
    1303, 
    1304, 
    1305, 
    1306, 
    1307, 
    1311, 
    1312, 
    1313, 
    1314, 
    1315, 
    1316, 
    1317, 
    1318, 
    1319, 
    1320, 
    1321, 
    1322, 
    1323, 
    1324, 
    1328, 
    1329, 
    1330, 
    1331, 
    1332, 
    1333, 
    1334, 
    1335, 
    1336, 
    1337, 
    1338, 
    1339, 
    1340, 
    1341, 
    1345, 
    1346, 
    1347, 
    1348, 
    1349, 
    1350, 
    1351, 
    1352, 
    1353, 
    1354, 
    1355, 
    1356, 
    1357, 
    1358, 
    1362, 
    1363, 
    1364, 
    1365, 
    1366, 
    1367, 
    1368, 
    1369, 
    1370, 
    1371, 
    1372, 
    1373, 
    1374, 
    1375, 
    1379, 
    1380, 
    1381, 
    1382, 
    1383, 
    1384, 
    1385, 
    1386, 
    1387, 
    1388, 
    1389, 
    1390, 
    1391, 
    1392, 
    1396, 
    1397, 
    1398, 
    1399, 
    1400, 
    1401, 
    1402, 
    1403, 
    1404, 
    1405, 
    1406, 
    1407, 
    1408, 
    1409, 
    1410, 
    1411, 
    1412, 
    1413, 
    1414, 
    1415, 
    1417, 
    1418
  ], 
  "heads": [[1147, 0, 0], [1151, 0, 0]], 
  "attrs": {"mxnet_version": ["int", 10300]}
}